vit/lightning_logs/version_0/checkpoints/epoch=4-step=2150.ckpt (torch, 74888 bytes, 135 tensors)

model.class_token f4 [1, 8]
000000 52 37 05 3f 2e 4f d6 3e d3 d2 38 3f 29 78 80 3b
       0.5203754 0.41857284 0.7219669 0.003920574
000010 d8 d5 65 3f d8 94 29 3f eb 8b fe 3e 6b 18 28 3e
       0.89779425 0.6624274 0.49716124 0.16415565

model.linear_mapper.weight f4 [8, 16]
000000 fe 49 fa 3e f1 fe c6 bc 1d f2 aa 3d d3 95 88 3e
       0.48884577 -0.024291487 0.08346961 0.26676807
000010 fa 4b bb 3e 7d bb 00 3f b5 2d 7d 3e ce e3 6f 3e
       0.36581403 0.50286084 0.24724467 0.23426744
000020 d9 ee 9b 3d 6d 1b c2 bd b3 c8 57 3e be a8 b2 3d
       0.07613916 -0.09477887 0.21072654 0.08723591
000030 a7 ec 80 3e 7d d0 c0 3d ec e1 6a 3e 92 c1 9b be
       0.2518055 0.09414766 0.22937745 -0.3042112
000040 6c 12 47 be f0 25 a0 3e 8b 6d 01 3d 19 03 b8 3e
       -0.19440621 0.31278944 0.03159861 0.35939863
000050 32 48 84 be 7c 89 9d bd 43 2a 33 be d8 40 91 3e
       -0.2583633 -0.07692239 -0.1749659 0.28369784
000060 aa e6 cc bb 35 6a 98 3e 54 b3 88 3e ad c0 1e 3e
       -0.0062530832 0.2976853 0.26699317 0.15503187
000070 3e 4c 9b 3e ce ea 26 3e 2a 5e b8 3d 69 27 0c 3e
       0.30331606 0.16300508 0.09002335 0.13686909
000080 5d ee e0 be 66 a5 b9 bd 0b ca 2c be ef b4 19 bf
       -0.43931857 -0.090647504 -0.16873948 -0.6004171
000090 8c ec 7f be f5 46 c0 be 08 d6 c6 bd 01 db 53 be
       -0.24992579 -0.37554136 -0.09708792 -0.20689012
0000a0 17 2e 11 bc 8d b1 a4 bd 59 b6 ab 3d 08 ba a2 bd
       -0.008861086 -0.080416776 0.083843894 -0.07945639
0000b0 ca 96 0b 3f 3b a7 fa 3d fb ba 46 3e 25 88 42 3e
       0.5452696 0.12238928 0.19407265 0.18997248
0000c0 be 47 5c 3e 12 78 33 3d e4 23 6f bd ef 72 a1 3d
       0.21511742 0.04381568 -0.058383837 0.0788325
0000d0 84 a5 c6 3d 87 b7 60 3e b6 7e 54 3e 74 d5 2e 3e
       0.09699538 0.2194501 0.20751461 0.17073613
0000e0 87 48 00 3e ac c2 a6 bd 38 d0 b9 3d 05 49 c0 3d
       0.12527667 -0.081425995 0.09072918 0.09388927
0000f0 90 0c 64 3e 3b 2b e8 bc ca a3 b2 3d 78 ce 7f 3e
       0.22270417 -0.028340926 0.087226465 0.24981105
000100 18 e0 88 3a bf 81 08 3e 88 2e ea bd ac 60 0c 3f
       0.0010442762 0.13330744 -0.114346564 0.5483501
000110 04 c6 b9 bd 81 12 4a 3e ef 6d f6 3d 1e 71 55 3e
       -0.090709716 0.19733621 0.12032687 0.20843932
000120 c7 ec 0e bc 4e a2 23 3d e4 85 39 3e c9 09 60 3e
       -0.008723444 0.039949708 0.18117481 0.21878733
000130 a4 06 6c 3e 0f 90 ae 3d fb 66 16 bd 96 43 07 3d
       0.23049408 0.08523571 -0.036719304 0.03302344
000140 2f 9e de bc 5a 8d 41 3d 56 27 75 3d cd 5f 4c 3d
       -0.027175037 0.047253944 0.059851967 0.04989605
000150 9a 78 ae be 35 ca 4a be 1d 9d d0 bd 4f 36 aa be
       -0.34076387 -0.19803698 -0.10186217 -0.3324456
000160 6b 2d c0 be 34 26 52 be 43 de e6 be 82 31 ae be
       -0.3753465 -0.20522386 -0.45091447 -0.34022146
000170 30 e7 63 be d7 6d 1f be 3d d6 23 be c2 ef 09 bd
       -0.2225616 -0.15569244 -0.15999694 -0.033675916
000180 8f c5 e1 be 04 66 bb be 12 4d ca be 4b 76 f7 be
       -0.44096038 -0.3660127 -0.39511925 -0.48332438
000190 7c f6 58 3e 52 09 1b be b0 47 64 be f8 f1 6f 3e
       0.21187776 -0.15140274 -0.22292972 0.23432148
0001a0 08 9e d6 3e 4f 2d b7 3d 3a 21 b2 3c 06 ff ea 3e
       0.41917443 0.08944189 0.02174436 0.45897692
0001b0 72 64 09 bd ab b9 9c be 45 89 c6 be 9c 80 5e 3c
       -0.033543058 -0.30610403 -0.38776603 0.013580468
0001c0 26 ef 12 3e de 38 83 3e 2e a4 96 3e fd f6 32 3d
       0.1434904 0.25629324 0.29422134 0.043692578
0001d0 45 8b 1a be 9e 18 8d bd ed 8c ba bd 7b f3 9e bd
       -0.1509219 -0.06889461 -0.09108911 -0.07761284
0001e0 e3 fc 59 bc 7d a7 9e 3d 03 ff 65 bd 1d 33 9d be
       -0.013304922 0.077467896 -0.0561514 -0.3070306
0001f0 35 e3 34 3e 64 1e f2 3d 5c 11 02 3e 02 8f e8 bd
       0.17664798 0.11822203 0.12701935 -0.113554016

model.linear_mapper.bias f4 [8]
000000 20 bf 4d 3e a1 36 0b be 71 6d a4 bd b4 3a 7d 3e
       0.2009244 -0.13595058 -0.08028687 0.24729425
000010 a9 c7 e9 3d 88 ac a3 bd c6 f0 e2 bc 35 33 90 3e
       0.11415035 -0.07991892 -0.0277027 0.28164068

model.blocks.0.norm1.weight f4 [8]
000000 ba aa 73 3f de e7 a6 3f 3d e1 7c 3f e0 ec 88 3f
       0.95182383 1.303951 0.98781186 1.0697289
000010 c0 d7 95 3f fd d2 8d 3f b3 8d 83 3f 89 99 87 3f
       1.1706467 1.1080014 1.0277618 1.059373

model.blocks.0.norm1.bias f4 [8]
000000 96 41 94 3d f6 0f e8 3d 2d 8e 59 3e cb 3a b9 bd
       0.07239072 0.11331169 0.21245642 -0.09044417
000010 a6 20 62 bc 33 75 7d bc b6 09 2c 3e c1 7e c1 bd
       -0.013801729 -0.015469837 0.1680058 -0.094480045

model.blocks.0.mhsa.q_mappings.0.weight f4 [4, 4]
000000 db 93 cb 3d df ef 32 be 2d 02 11 3f 12 4a b4 be
       0.099403106 -0.17474316 0.56643945 -0.3521276
000010 1d 8c 21 be 5b db 24 bf 53 77 25 bf 90 b0 b2 bd
       -0.15776105 -0.6439721 -0.646352 -0.08725083
000020 12 55 de 3e 77 d9 1e bf 1f 8c b2 3e c0 47 cb 3d
       0.43424278 -0.62050575 0.3487253 0.099257946
000030 19 d3 59 3e 85 7a 04 bf 76 e0 cd be 86 ba 61 be
       0.21271934 -0.5174945 -0.40210313 -0.2204381

model.blocks.0.mhsa.q_mappings.0.bias f4 [4]
000000 c3 ef 8c 3e a7 05 0e bd 1b ee 29 3f 0e 19 8a be
       0.27526674 -0.03467336 0.66378945 -0.2697224

model.blocks.0.mhsa.q_mappings.1.weight f4 [4, 4]
000000 8e c1 ba be 8c d7 d8 bd a3 97 d2 3e c3 08 88 3d
       -0.36475796 -0.10587987 0.41131315 0.06642296
000010 44 4a 71 3e 8c 5a be 3e 89 d2 61 3e 28 98 f4 3e
       0.23563486 0.37178457 0.22052969 0.47772336
000020 32 dc 23 3e 42 bc 1e bf d1 7d 40 3e 7e d3 96 3e
       0.16001967 -0.6200601 0.18797995 0.2945823
000030 1c 4a 41 bf 40 fe 3f 3f b9 28 0f 3e a4 74 84 be
       -0.75503707 0.7499733 0.13980378 -0.2587024

model.blocks.0.mhsa.q_mappings.1.bias f4 [4]
000000 19 3c eb be 7e 17 22 3e a1 17 94 be 3d 9d cf 3e
       -0.45944288 0.15829274 -0.28924277 0.4054965

model.blocks.0.mhsa.k_mappings.0.weight f4 [4, 4]
000000 42 32 d2 3d 15 a9 0c 3f e8 30 57 3e 7c a5 22 be
       0.10263492 0.549455 0.2101475 -0.1588344
000010 08 b6 80 be d6 57 b5 3e bd 39 20 3f f5 2a 80 bf
       -0.2513888 0.35418576 0.625881 -1.001311
000020 3c b5 9f bd 6b d1 ad 3e 9b f4 9b bd bc 5b 2f bf
       -0.077982396 0.33948836 -0.07615014 -0.6849935
000030 35 35 44 3e 77 6d b7 be d0 26 f3 3e d7 a4 45 bf
       0.19160922 -0.35825703 0.4749055 -0.7720465

model.blocks.0.mhsa.k_mappings.0.bias f4 [4]
000000 c3 c7 98 3d 2b c5 b2 be 7f 26 30 be 8b a4 09 be
       0.074599765 -0.34916052 -0.17202185 -0.13441674

model.blocks.0.mhsa.k_mappings.1.weight f4 [4, 4]
000000 98 7e b6 be 09 99 a6 3e c4 dd ff 3e 1d 73 72 bf
       -0.35643458 0.32538632 0.4997388 -0.947069
000010 71 3f 0c be bf 6d 29 be 2e 7d ff be b6 fc 3e 3f
       -0.13696076 -0.16545771 -0.49900192 0.74604356
000020 2d 01 10 bf 24 3a 9a 3e e7 16 d3 3e 8e 3a e4 be
       -0.56251794 0.30122483 0.4122841 -0.44575924
000030 dd f0 a4 3e 06 ac 5a 3e 0f fd 3b bf 30 e5 ab 3d
       0.32215014 0.21354684 -0.7343301 0.083933234

model.blocks.0.mhsa.k_mappings.1.bias f4 [4]
000000 f4 88 34 be 52 ca 72 be 0c 55 a6 3e 01 07 79 be
       -0.17630368 -0.23709992 0.3248676 -0.24319078

model.blocks.0.mhsa.v_mappings.0.weight f4 [4, 4]
000000 1a be 6c bc 4e f1 5e 3e f7 db 0a 3e 90 b8 f1 3e
       -0.014449621 0.21771738 0.13560472 0.47211123
000010 1b 8b 44 3f 9a 16 d4 3e 6e 47 ca be c7 15 13 3d
       0.7677476 0.41423494 -0.39507622 0.03590944
000020 6d a7 3b 3e 0c 82 7a be a9 c2 d9 3e dd dd 92 be
       0.18325587 -0.24463671 0.42531326 -0.28684893
000030 d1 7d 49 3f cf 0d 9d 3c 7c 86 61 bd 28 60 fe be
       0.78707606 0.019171624 -0.055059895 -0.49682736

model.blocks.0.mhsa.v_mappings.0.bias f4 [4]
000000 db 0e b5 3e 7a 5c a6 be 37 5a 01 bf c2 ac d4 bd
       0.35362896 -0.3249243 -0.5052828 -0.103845134

model.blocks.0.mhsa.v_mappings.1.weight f4 [4, 4]
000000 33 89 5a 3e 6e 8e 4a bf ed 15 a4 bd 5c 8b ca 3e
       0.213414 -0.7912358 -0.080119945 0.39559448
000010 08 7d 0a bf 1e 70 19 3f cd 7f a5 bb 30 6f 0c bf
       -0.5409703 0.599367 -0.0050506354 -0.5485716
000020 77 9c ae 3e b7 ef 3d 3d 11 93 5b bd b4 f6 b2 3e
       0.34103748 0.046371188 -0.05360705 0.34953845
000030 65 3a c1 be fc b7 e2 be 34 6a 98 3e e9 c2 16 bf
       -0.37739864 -0.44280994 0.29768527 -0.5889116

model.blocks.0.mhsa.v_mappings.1.bias f4 [4]
000000 6a 22 6d be 29 8a 82 3e 76 de fd bd f4 d3 80 3e
       -0.23157659 0.25496033 -0.12395947 0.25161707

model.blocks.0.norm2.weight f4 [8]
000000 0f de 9f 3f 00 40 8f 3f af b3 8a 3f ad e2 a5 3f
       1.2489642 1.1191406 1.0836085 1.2959801
000010 7b c9 8e 3f 5b ea 5a 3f 68 5c 85 3f df 4c 4f 3f
       1.1155237 0.8551385 1.0418825 0.8097667

model.blocks.0.norm2.bias f4 [8]
000000 2a 69 cd bc b0 5a cb 3b dd ae 6a 3e 35 0b 0f 3e
       -0.02507456 0.006205879 0.22918268 0.13969119
000010 29 44 66 be 0d 63 51 bc 70 6a 4f be d2 cb 2d 3e
       -0.22486939 -0.012779963 -0.20255446 0.16972283

model.blocks.0.mlp.0.weight f4 [32, 8]
000000 4d 34 7d 3c 8e 4d c6 bd 4b 8d 7b 3e 98 86 07 3c
       0.015454364 -0.09682761 0.24565618 0.008271836
000010 65 64 c7 3e 78 26 bb bd 65 cc 2b be 3f f2 24 be
       0.38943782 -0.09138197 -0.16777189 -0.16108035
000020 c6 1a 20 bf 1f 82 78 3e 0b 93 b0 bc 70 bc 3a 3e
       -0.62540853 0.24268387 -0.02155449 0.18235946
000030 19 4e 87 3e 1f ee 91 3d 51 87 18 bf ca d5 cc bd
       0.2642677 0.07125496 -0.59581476 -0.100017145
000040 bc c5 2a be 3f 55 2c be 9d 26 b8 3e 1a 79 b0 bd
       -0.16676992 -0.16829394 0.3596696 -0.08616848
000050 85 a4 eb bb 15 cb fd bc 2f ae 8e be 30 21 04 3d
       -0.007191243 -0.030980626 -0.27867267 0.032258213
000060 6d ed b1 3e b7 5b 18 3e 59 cc c2 be 11 68 50 3f
       0.34751454 0.14878736 -0.3804653 0.8140879
000070 59 97 30 bf b1 4a 00 3e f6 28 7b 3e ae 23 86 be
       -0.6898094 0.12528493 0.24527344 -0.26199096
000080 4a 65 1c bf 83 4c 7e 3e 33 b6 64 3f ff 51 e0 3e
       -0.61092055 0.24833874 0.89340514 0.43812558
000090 27 54 64 be c5 c3 17 3f e7 28 05 3f d5 66 68 be
       -0.22297727 0.59283096 0.5201554 -0.22695477
0000a0 92 45 55 bf a9 5d 0c 3e 21 f7 a7 3e 7b a3 c9 be
       -0.8330928 0.13707604 0.32805732 -0.39382538
0000b0 f0 b9 97 3e 75 95 50 be 90 84 02 bf 66 04 30 3d
       0.29634047 -0.20369513 -0.50983524 0.042972945
0000c0 59 64 05 3f 9d 90 01 be c4 ac 2d 3e 09 c1 ea be
       0.52106243 -0.12652822 0.16960436 -0.458504
0000d0 f2 e3 29 bf 47 6a 02 3f 17 87 32 bf a5 72 92 be
       -0.6636344 0.50943416 -0.6973738 -0.28603092
0000e0 fa f5 4d 3e 47 80 75 be e2 c0 a3 3e 39 c5 8d 3e
       0.20113364 -0.23974715 0.31983095 0.2768953
0000f0 1a 61 54 bf 9c dc 0b 3f 30 21 9a 3d 72 91 73 3e
       -0.82960665 0.546335 0.07525861 0.23785952
000100 f4 5a cd 3d 70 c5 02 be 74 24 8f be 81 27 d5 bc
       0.100271136 -0.12770629 -0.279575 -0.026019813
000110 65 d5 9f be dc df cf 3d 37 61 09 be dc b6 e8 bd
       -0.31217495 0.1015012 -0.13415991 -0.11363003
000120 df d7 df be 5e 90 c3 3e b3 4a c6 3d be d3 6c 3d
       -0.43719384 0.3819608 0.096822165 0.05781912
000130 a0 fc 0a 3d 53 83 2d be e5 b3 39 3e 25 4a 95 ba
       0.03393233 -0.16944627 0.1813503 -0.0011389895
000140 6b e9 21 3c 90 bd 50 3e ae e3 bd 3e 2e 64 de be
       0.009882311 0.20384812 0.37087768 -0.43435806
000150 cd 93 23 3e 49 a0 3f be cd 39 d7 be 14 18 91 3e
       0.1597435 -0.18713488 -0.42036286 0.28338683
000160 e9 f7 91 be 2c c7 16 3f 26 f9 05 3f fb a6 0b be
       -0.28509453 0.5889766 0.52333295 -0.13637917
000170 4b 03 1c bf 8e 9f b6 3e a2 84 4c be 69 91 06 3e
       -0.60942525 0.35668606 -0.1997247 0.13141407
000180 ff 74 a2 be 5b 86 a3 be e2 a3 c9 bd 25 1d fb 3e
       -0.31729886 -0.31938443 -0.09845711 0.49045673
000190 81 15 d5 3d 4d 14 d9 3c ac 08 87 3d fe 12 c8 bc
       0.10404492 0.026498938 0.06593451 -0.024423119
0001a0 82 a8 b5 3e 8a e7 79 3e 7d 5b a3 be 1d 0a 7c 3e
       0.35480124 0.24404731 -0.31905738 0.24613233
0001b0 f0 ef 12 bf cb cf 73 3d 89 ef 74 3e 3a c3 96 be
       -0.57397366 0.05952434 0.239195 -0.2944582
0001c0 73 e2 69 3d 92 0a 3f be 0e 18 5b 3f 9c f1 da be
       0.057100724 -0.18656376 0.8558358 -0.42762458
0001d0 d1 d1 c0 bf 54 59 c8 3e a0 64 2d be 07 25 0b 3e
       -1.5064031 0.39130652 -0.16932917 0.13588344
0001e0 59 18 70 be e9 c5 e9 3d 3a b4 99 3e e4 bf 7e be
       -0.23446788 0.114147015 0.30020314 -0.24877888
0001f0 f2 64 e8 bb 8c b2 3d 3e f9 35 fa 3e f7 86 ea be
       -0.0070921117 0.18525141 0.48869303 -0.45806095
000200 23 1c 33 3e 85 45 b4 3c 87 70 44 3d f5 13 a7 3e
       0.17491202 0.022005806 0.047958877 0.32632414
000210 fc f0 2c 3e 24 7f 57 be 94 48 b9 3e 52 9e ec bd
       0.16888803 -0.21044594 0.36188185 -0.11553635
000220 55 ec 31 be 60 24 72 be ca f9 6a bd b3 cb 89 be
       -0.1737531 -0.23646688 -0.057367124 -0.26913223
000230 76 6d 73 be 4e 53 ad bd 1a 7b 7a 3e 48 29 90 be
       -0.23772225 -0.08463155 0.24461022 -0.28156495
000240 f9 0c f1 3b dd e6 94 bd c7 b2 b1 3e de ad f7 3d
       0.007356283 -0.07270596 0.3470671 0.120937094
000250 4d 47 0b 3e 5a fc 21 3e af 6f 2c bf 10 c0 0a 3e
       0.13601418 0.1581892 -0.67357916 0.13549829
000260 77 af b2 be c4 d1 17 3d 30 40 6b 3e 68 c1 d6 3d
       -0.34899494 0.037065282 0.22973704 0.10486108
000270 de f4 ac 3e 00 ea 56 be fe d4 1d 3f a5 cd c4 bc
       0.3378057 -0.20987701 0.61653125 -0.02402384
000280 85 6e 66 3e 70 d5 07 3e 1c de 53 be 2f 16 26 3f
       0.22503097 0.13265014 -0.20690197 0.648776
000290 99 ec 47 bf 3e 9b 12 3e e2 8f c6 be 49 8d f3 3d
       -0.78095394 0.14317033 -0.3878165 0.118921824
0002a0 59 01 24 be 01 5a 8c be 9b 60 a3 be e4 73 13 3f
       -0.16016139 -0.27412418 -0.31909642 0.5759871
0002b0 61 cd 03 bf 2b f4 f3 bc 8f b3 fb 3e 2f 69 a3 3d
       -0.5148526 -0.029779514 0.4916043 0.079790466
0002c0 a5 1c de 3e 75 08 16 bf e9 61 8b 3f 73 f1 f9 be
       0.4338123 -0.58606654 1.0889255 -0.48817024
0002d0 ac 4c 70 be 19 9d a3 be 58 90 69 be 93 80 4f 3e
       -0.23466748 -0.31955793 -0.22808969 0.20263891
0002e0 43 7f 95 be 0c 6d 5e 3e 2b 3c b8 3d 7a 4b 30 be
       -0.29198655 0.21721286 0.08995851 -0.17216292
0002f0 d3 dc cd be 18 2a 75 3e df 5f 8d 3e b1 01 ff be
       -0.40207538 0.23941839 0.27612206 -0.49805978
000300 92 8e 6d be d0 b5 d9 3e f5 5b 83 3b 35 c3 bf be
       -0.23198918 0.42521524 0.004008765 -0.3745362
000310 32 b8 81 be 02 92 19 be cd 2c e3 bc 53 f4 79 be
       -0.25335842 -0.14997104 -0.027731324 -0.24409609
000320 14 f6 fe 3e d1 a5 ac 3e 2f e8 13 3e fc 84 e1 be
       0.49797118 0.33720258 0.1444404 -0.44046772
000330 16 2b 63 bd 27 eb 83 bd 70 c5 03 bf 6a 06 11 bf
       -0.05546101 -0.06441336 -0.5147314 -0.5665041
000340 af db d8 3e f4 5d 86 be 24 97 df 3d a2 8a 95 3d
       0.42355105 -0.26243556 0.109175 0.07301833
000350 d1 c1 ba 3e 8d f6 24 bf 08 40 f4 bc 4e 86 17 be
       0.36475995 -0.64438707 -0.029815689 -0.14797327
000360 d1 a4 7a 3e af 79 23 3f 5b 7c 4f be cd 23 ff be
       0.24476935 0.6385755 -0.20262282 -0.49832
000370 7a e4 96 be 67 46 a1 bd 18 bf ba 3e 7d 1a e3 be
       -0.2947119 -0.07874756 0.36473918 -0.44356146
000380 9b 82 9f be 1e 4d 08 be ac 71 4e 3f 5b 2d a5 be
       -0.31154332 -0.13310668 0.806422 -0.32261166
000390 04 62 e2 be 4b b8 9f 3e b1 62 65 3e 3a bf 79 3e
       -0.44215405 0.31195292 0.22400929 0.24389353
0003a0 ce 6c 47 3e 4d 0a 87 3d 6a 07 5d 3e 91 95 05 bf
       0.194751 0.065937616 0.2158486 -0.52181345
0003b0 a0 56 e6 3e 4f e9 f5 be a0 0a 0a bd 11 6b 2e 3e
       0.44987965 -0.48029563 -0.03370154 0.1703303
0003c0 42 5d e5 3d c4 e7 c6 bd 21 7e 79 be ae e3 83 3d
       0.11199428 -0.097121745 -0.2436452 0.06439911
0003d0 21 2d 0e bd f6 21 28 3e 76 38 97 be 2c be 25 3d
       -0.034711007 0.16419205 -0.29535264 0.040464565
0003e0 27 b6 b5 be d4 ea 91 3e 27 b9 70 3f c5 69 54 3f
       -0.35490534 0.28499472 0.9403252 0.8297389
0003f0 40 e1 20 bf 7c da bc be 57 97 6c 3e 32 ba 4b be
       -0.62843704 -0.3688544 0.23104607 -0.19895247

model.blocks.0.mlp.0.bias f4 [32]
000000 64 eb 81 3d 26 ab e3 be b0 dd 83 3e bd 17 4b 3e
       0.06343725 -0.44466513 0.25755072 0.19833274
000010 1a 86 fb be 45 25 2a be dd 3b 06 be 94 0d 9f be
       -0.4912575 -0.1661578 -0.13108774 -0.31065047
000020 7b 75 03 be 2c 53 55 be 06 e8 12 3e 4e 5c 89 3e
       -0.12837784 -0.20832509 0.14346322 0.26828235
000030 76 51 a6 3d d7 36 84 bd 1f f5 27 be 33 f3 2e be
       0.08121006 -0.06455772 -0.164021 -0.1708496
000040 56 c2 01 3d 29 3c 48 be 19 53 0d 3e 0e f2 bd be
       0.031679474 -0.195542 0.1380123 -0.37098736
000050 c6 5c e6 bc ea 76 1c 3e 8d e9 3f bd 7a 1a 11 3e
       -0.02812041 0.15279737 -0.04685359 0.14170256
000060 99 cf 95 bd 6e 74 34 bf 45 95 a0 be f5 ab e8 be
       -0.07314987 -0.7049016 -0.31363884 -0.45443693
000070 0a 6a 89 be 36 ad 97 be b9 67 e3 bd d2 cc 01 be
       -0.26838714 -0.29624337 -0.11103768 -0.12675789

model.blocks.0.mlp.2.weight f4 [8, 32]
000000 69 47 d0 bd fa 00 df 3e 16 5f 94 bd 5d ee e2 bc
       -0.101698704 0.43555433 -0.07244699 -0.027701551
000010 a1 6e fa 3e 51 81 1d 3f 62 34 2c be 83 a6 53 be
       0.48912528 0.61525446 -0.16816857 -0.20668988
000020 e0 a2 f8 bd df 7e 81 3e 2b 0e 08 3f 4d 4f 04 3f
       -0.12140441 0.25292107 0.5314662 0.51683503
000030 fc 8e 76 be 2a 27 1c 3e 0a 2d ea be 77 69 d6 3d
       -0.24077982 0.15249315 -0.45737487 0.104693346
000040 a2 c8 cf 3c b3 9e 87 3c 76 97 eb 3c 69 4d 96 be
       0.025364224 0.016555166 0.028758746 -0.29355934
000050 69 99 c3 3c 5a 16 04 be 72 4a f0 be f1 79 3d 3e
       0.023876863 -0.12899151 -0.46931797 0.18503548
000060 f9 f3 18 3f 8b de 8f 3d 11 5b 4e 3e e1 cc 77 3e
       0.5974727 0.070248686 0.20151927 0.24199249
000070 36 84 a3 3b f1 c8 e0 3e 23 ef 93 bd 1a 80 4d 3e
       0.004990126 0.43903306 -0.07223346 0.20068398
000080 02 0c 8f 3e 36 9f c6 3d 37 6b 9d 3c 91 d9 2f 3d
       0.2793885 0.09698336 0.019216163 0.042932097
000090 ba fb 96 bc d9 58 40 3e aa 53 86 3e 6b 3a f2 3e
       -0.01843058 0.18783893 0.26235706 0.47310194
0000a0 c4 bd 60 bd 39 d1 0e be bc 81 71 3e 43 ba 15 bf
       -0.054868475 -0.13947 0.23584646 -0.5848734
0000b0 cc e8 7b 3e 55 9d 9d bd d5 0e 8b 3e af cf 6a 3c
       0.24600524 -0.07696024 0.27159753 0.014331742
0000c0 e1 9c 3c 3e 25 e6 86 3d 08 9c c7 3d 5a 65 be 3e
       0.1841922 0.06586865 0.097465575 0.371867
0000d0 4c 5b cf 3d 69 a6 c5 3d a4 98 91 3e 89 a6 82 be
       0.10124835 0.09650881 0.28436768 -0.2551768
0000e0 a3 65 a0 be 32 a2 0a 3f dc 80 19 3e 17 db 0b be
       -0.31327543 0.5415374 0.14990562 -0.13657795
0000f0 06 6a 82 be c3 39 cd 3e ac 4a 19 bd 3b 1b 29 be
       -0.25471514 0.4008313 -0.03742473 -0.16514294
000100 e4 2b 63 be 88 64 92 be e3 ff a5 3e fc fa 8d be
       -0.22184712 -0.28592324 0.3242179 -0.27730548
000110 02 95 d7 3d 26 83 f4 bb b2 98 0e be 9a 9c 02 3e
       0.10526468 -0.007461923 -0.13925436 0.12755051
000120 66 d7 e7 3c 4b a6 c3 be 91 8e d1 3e 5f 32 0b 3f
       0.028300952 -0.3821281 0.40929082 0.54373735
000130 08 0a 38 3c 0f 67 e7 be fe 60 d3 3c b6 5f 8b 3d
       0.01123286 -0.45195815 0.025803085 0.06805365
000140 e7 dc 8e be ab ad a5 3e ab c6 d0 3e 04 86 55 be
       -0.2790291 0.3235906 0.40776572 -0.20851904
000150 b3 7f dc bc 9b 0c aa 3e 15 74 41 3e 9d 7a 09 3d
       -0.02691636 0.33212742 0.18891938 0.0335642
000160 70 ff 29 3e 99 ec ac 3d 17 e1 36 3d fd c1 03 3e
       0.16601348 0.08443565 0.044648256 0.1286697
000170 f7 df 81 3d 46 3e ad 3d e0 80 36 bc ea 58 eb be
       0.06341546 0.08459143 -0.011139125 -0.45966274
000180 0f 40 ac bd e7 c7 cb bc ef c3 2c 3d 54 34 ac 3d
       -0.08410656 -0.024875594 0.042179044 0.08408418
000190 d1 60 a1 be ce 86 c8 bd 37 4a 2d bd d4 10 76 3d
       -0.31519178 -0.09791337 -0.042307105 0.060074642
0001a0 6c 7f 2a 3d 20 12 95 3c 74 8d 10 bd d8 39 0b 3e
       0.041625425 0.01819712 -0.03529115 0.13596284
0001b0 11 21 56 3e a0 37 1c 3d 38 84 de 3e 52 ca 0e 3e
       0.20911051 0.038138986 0.4346025 0.13944367
0001c0 5a 84 02 be 4b 53 74 bd 7e 35 eb 3d e2 9b 30 be
       -0.127458 -0.059649747 0.11484812 -0.17246965
0001d0 25 29 89 3e 0f a9 6a 3e d9 10 15 3f 67 d8 f6 3d
       0.26789203 0.22916053 0.5822883 0.12052994
0001e0 2c ff 6f 3e 47 9d 13 3e 6a 87 2c bd d2 5c 92 3e
       0.23437184 0.14415465 -0.04212133 0.2858644
0001f0 38 b7 90 3e ab aa 7e bc 31 43 45 3d 79 e9 eb be
       0.28264785 -0.01554362 0.04815978 -0.46076563
000200 92 52 15 be 43 70 b7 3d 63 47 45 be 38 fb b1 3e
       -0.1458228 0.08956959 -0.19265513 0.34761977
000210 be da 91 3e b2 72 65 be e5 a0 35 bb 9c be 97 3e
       0.284872 -0.22407034 -0.0027714309 0.2963761
000220 af 41 c4 3c 9d ef 2d 3e cb f1 3a be e5 e2 88 be
       0.023957102 0.16985936 -0.18256299 -0.26735607
000230 21 10 d0 3d bb d8 00 3f cf a5 53 3f 73 5a 7b 3d
       0.10159326 0.50330704 0.8267488 0.061365556
000240 4a e0 a6 3d 21 0f 5b bd 8e 3a a2 be 29 95 04 3f
       0.081482485 -0.053481225 -0.316853 0.517901
000250 13 74 af bc c3 30 f6 3e b5 e9 0f be 19 c7 c7 3d
       -0.021417653 0.48084077 -0.14053996 0.09754772
000260 fc 26 04 3e a1 90 d2 3e 84 ea 08 bf 8f 0d f1 3e
       0.12905496 0.41125968 -0.5348284 0.47080657
000270 82 83 25 be 8f 81 76 be 59 bc fc 3b b9 1e af be
       -0.16163447 -0.2407286 0.0077128825 -0.34203127
000280 ea 71 87 3b f4 dd 19 3e a0 ba e4 bd f8 92 10 be
       0.0041334527 0.15026075 -0.111684084 -0.14118564
000290 34 e8 ed 3d 4b 23 85 be a4 33 4f bd 4e 4f 0f be
       0.11616555 -0.2600349 -0.050586358 -0.13995096
0002a0 d5 0f de 3d f5 e3 57 be ad 7c 4e 3e 4e af 5b 3f
       0.108428635 -0.21083052 0.20164748 0.8581437
0002b0 17 25 a6 bd c3 bb 51 bd fe 2b bc be 8a 8b 89 be
       -0.08112543 -0.051204454 -0.36752313 -0.26864272
0002c0 43 2d 3b 3d 88 08 da bd 5c b1 78 bd 03 b1 e0 be
       0.04569746 -0.106461585 -0.060716018 -0.4388505
0002d0 99 7f 39 be d6 7b 56 bd 31 d2 2a bd b5 8f 7e be
       -0.18115081 -0.052364193 -0.04170436 -0.24859507
0002e0 46 69 5d 3e 79 39 a7 be 2b c7 62 3d 52 a1 b5 3b
       0.2162219 -0.32661036 0.055365723 0.0055429125
0002f0 2f 03 98 be a1 be 94 3d c2 ed 4d 3e 2f 5e 7a 3f
       -0.2968993 0.07262922 0.20110229 0.9779996
000300 99 67 a0 3d 18 de bc 3e 40 94 2d 3e 7c 77 ed be
       0.0783226 0.36888194 0.16951084 -0.46380222
000310 6f 44 7f 3e 64 4c fc 3e 38 e3 9b 3e 60 7e b8 be
       0.24928449 0.4927703 0.30446792 -0.36033916
000320 70 ce 3d 3e ac 19 11 3d 88 85 00 3e 3f f7 28 3d
       0.18535781 0.035424873 0.12550938 0.041251417
000330 e6 7d 9f bd e7 5d 34 3e 9b da 76 be 92 59 e1 ba
       -0.07787685 0.17613946 -0.24106829 -0.0017192832
000340 8d 08 78 bd 9d c5 1d bd 57 74 6c 3e f0 20 04 3e
       -0.06055503 -0.038518537 0.23091255 0.1290319
000350 dc 5d c4 be f4 15 bb be 00 77 46 3e 00 5a be 3d
       -0.3835286 -0.36540186 0.19381332 0.0929451
000360 94 59 86 be a1 11 9e be 85 99 7b 3e be 4f 09 bf
       -0.26240218 -0.30872825 0.24570282 -0.536373
000370 ef 06 21 3e 24 91 06 be cd 26 94 3e 61 1b 2b be
       0.15725301 -0.13141304 0.28935853 -0.16709663
000380 7d 93 ad 3d 35 eb 4d be ef f4 0a be 47 22 1c 3f
       0.08475397 -0.20109256 -0.13569997 0.60989803
000390 50 12 42 bf 4f d2 a8 be 3d 25 b2 be c3 d9 08 3e
       -0.7580919 -0.32972953 -0.34794036 0.1336432
0003a0 a4 0f 84 3b f3 57 a1 be 4a 59 a0 be 15 d3 c5 be
       0.004030185 -0.31512412 -0.31318122 -0.38637605
0003b0 44 85 39 3e 2c 8b 86 3e f7 93 71 bd a7 a5 b8 3d
       0.18117243 0.26278055 -0.058979 0.09015971
0003c0 2d 49 2b 3d a7 60 d6 3c c2 9a 4e 3b 74 5d 2b be
       0.041817833 0.026169134 0.0031525348 -0.16734868
0003d0 b0 65 f6 3e e8 6e 82 3e 6f 59 61 be 70 4a c7 bd
       0.48124456 0.2547524 -0.22006772 -0.09730995
0003e0 83 5c ef bd 73 18 a0 be 39 0b 27 be 4b ac 09 be
       -0.11687567 -0.31268653 -0.16312875 -0.13444631
0003f0 3f 3b 86 bb 20 60 87 be a6 4e 34 3d 3f 6a ce 3d
       -0.004096418 -0.26440525 0.044020317 0.100788586

model.blocks.0.mlp.2.bias f4 [8]
000000 cf 74 aa 3b 99 e1 f0 bd f0 df ea 3c b9 28 44 3d
       0.005201913 -0.11761779 0.028671235 0.0478904
000010 8e d6 a5 be 2d 5b 55 3e b7 35 0a 3e 08 51 94 bc
       -0.32390255 0.20835562 0.13497053 -0.018105045

model.blocks.1.norm1.weight f4 [8]
000000 51 c2 91 3f da e2 9f 3f 83 23 94 3f 94 8e ad 3f
       1.1387426 1.2491105 1.1573337 1.3559136
000010 05 83 a3 3f 03 db 9e 3f b4 64 ab 3f f1 c5 a1 3f
       1.2774359 1.2410587 1.3390107 1.2638532

model.blocks.1.norm1.bias f4 [8]
000000 d9 22 5c 3a cb 63 16 bd 93 ab 51 3d 77 5b fa 3d
       0.00083975267 -0.036716264 0.051189017 0.12224477
000010 20 f5 5c 3e de 1c c8 3d cc 52 ca bd 48 b6 1d 3e
       0.21577883 0.09771131 -0.098790735 0.15401566

model.blocks.1.mhsa.q_mappings.0.weight f4 [4, 4]
000000 0e 2d b2 3c 7c d9 24 3d 09 e3 1f 3e 66 2c 47 bd
       0.02175 0.04024647 0.15613951 -0.048626326
000010 93 f4 28 3d 18 6b 82 3e cb 63 77 be e3 bf 2b 3e
       0.04124887 0.2547233 -0.24159162 0.16772418
000020 50 f6 34 be bf af 56 3e 4c 22 32 bf ab fd d9 3e
       -0.17672086 0.2096548 -0.6958358 0.42576346
000030 90 28 88 3e 62 fe da 3d f0 33 02 bf fc 80 d9 be
       0.26593447 0.10693051 -0.508605 -0.4248122

model.blocks.1.mhsa.q_mappings.0.bias f4 [4]
000000 f6 88 e2 3e 68 04 04 bf a3 73 ff 3e fd 9f 78 bd
       0.44245118 -0.51569223 0.4989291 -0.06069945

model.blocks.1.mhsa.q_mappings.1.weight f4 [4, 4]
000000 f6 92 c9 3e ea 1f 04 3e 29 98 e6 bd ac 1a c2 bc
       0.39369935 0.12902799 -0.11259491 -0.023694359
000010 fb 06 07 3f 21 66 19 3e 71 b6 6a 3d 5f 5d ce be
       0.52745026 0.14980365 0.057302896 -0.40305611
000020 d5 c8 28 3e 5a c3 e1 3e 7f 97 4b 3e 36 9f 0a be
       0.16482861 0.44094354 0.1988201 -0.13537297
000030 e1 02 08 3e bd 4d 2a bd 1b 8d c3 bd bb d7 07 bd
       0.13282348 -0.041578043 -0.09548398 -0.03316472

model.blocks.1.mhsa.q_mappings.1.bias f4 [4]
000000 fa c0 89 3e 56 74 c1 be ca 9b 87 3e 68 0d 3d bf
       0.26905042 -0.3778407 0.26486045 -0.7384858

model.blocks.1.mhsa.k_mappings.0.weight f4 [4, 4]
000000 a8 e0 8b 3e 02 2f b1 be f7 5b 03 be 16 51 b3 3d
       0.27319837 -0.34606177 -0.1282805 0.087557
000010 54 6b 1b 3e 4a b4 ae bd 3b 95 b6 bd e0 58 0e bd
       0.15177661 -0.08530481 -0.08915182 -0.034752727
000020 e1 4d c5 3e 8f c4 a6 be 7e d3 ee be 10 36 46 bf
       0.3853598 -0.32571837 -0.4664573 -0.7742624
000030 36 93 2b 3f ae 9c 1b 3e 66 db 8b be d7 78 63 3b
       0.670215 0.15196487 -0.27315825 0.0034709477

model.blocks.1.mhsa.k_mappings.0.bias f4 [4]
000000 84 c7 94 be dc 77 5d 3e b1 2f 7b 3e aa 2a a5 3e
       -0.29058468 0.21627754 0.24529912 0.32259113

model.blocks.1.mhsa.k_mappings.1.weight f4 [4, 4]
000000 07 4e b9 3d 34 3d 9d 3e f7 b5 0d 3e b4 1d e7 be
       0.09048086 0.30710757 0.13838945 -0.4513985
000010 3c 8a 8d 3e d3 a8 e6 3e f5 4c 00 3f 2e 57 15 bf
       0.27644527 0.45050678 0.5011743 -0.5833615
000020 80 00 32 be 4b 8d df 3e 05 58 d8 bd ae 16 01 bf
       -0.17383003 0.43662485 -0.105636634 -0.5042523
000030 05 44 1c 3f 9b ee 85 3d b2 63 e9 3e 84 2b e1 3e
       0.6104129 0.06539651 0.45583874 0.43978512

model.blocks.1.mhsa.k_mappings.1.bias f4 [4]
000000 43 fe 83 3e 24 31 40 3e a3 18 71 3e 9b 2d e8 3e
       0.25779924 0.18768746 0.23544554 0.45347294

model.blocks.1.mhsa.v_mappings.0.weight f4 [4, 4]
000000 d2 eb c5 3d 2c 46 8d bf 0e 14 81 3e df 15 fc be
       0.0966412 -1.103704 0.25210613 -0.49235436
000010 eb 73 cf be e1 ac 43 bf 13 81 86 be 74 1f 29 3f
       -0.40518126 -0.7643567 -0.2627035 0.6606362
000020 59 62 64 3e 27 e3 02 3f b8 d7 27 bf 87 69 d7 be
       0.22303142 0.51127857 -0.65563536 -0.42072698
000030 65 5f 33 3f d0 c6 49 3f ad 05 a2 3e e0 b8 4f 3f
       0.70067436 0.7881899 0.31644955 0.8114147

model.blocks.1.mhsa.v_mappings.0.bias f4 [4]
000000 14 59 b5 3e c6 8d 9c 3e 4b 39 6f bd 7c 20 98 3d
       0.35419524 0.30576915 -0.05840425 0.07428071

model.blocks.1.mhsa.v_mappings.1.weight f4 [4, 4]
000000 6a d6 89 be 3e c8 ae 3d e1 55 9b bf 7e 05 36 bf
       -0.26921397 0.08534287 -1.2135583 -0.7110213
000010 0a 5c 19 3f d2 8e 6b bf 25 0e c4 3d 0b 5a d1 be
       0.59906065 -0.920148 0.0957301 -0.4088901
000020 7d 0b 4d 3f 2a 9f 44 3f ae b4 04 bf 12 34 76 3e
       0.80095655 0.76805365 -0.51838195 0.24043301
000030 e2 17 08 be e5 b6 cd 3e 28 77 0d 3f 35 38 0b 3e
       -0.1329036 0.401786 0.55259943 0.1359566

model.blocks.1.mhsa.v_mappings.1.bias f4 [4]
000000 b8 18 b6 be 35 d6 d6 3d 3d 43 ce bd ef a6 38 3e
       -0.35565734 0.104900755 -0.100714184 0.1803243

model.blocks.1.norm2.weight f4 [8]
000000 92 5f b0 3f e5 ba f1 3f e5 20 cc 3f b4 9d ef 3f
       1.3779166 1.8885161 1.5947539 1.8720002
000010 2e 17 db 3f 65 9c fa 3f 39 7b e9 3f fc dd bf 3f
       1.7116449 1.9578978 1.824073 1.4989619

model.blocks.1.norm2.bias f4 [8]
000000 ee a7 7d 3c fa fb c2 3e d6 70 88 bc 29 a2 33 bd
       0.015481932 0.38082868 -0.016655367 -0.04385582
000010 71 1f 63 be 29 6d 0c be 42 48 88 bd aa 12 52 3e
       -0.22179963 -0.13713516 -0.06654407 0.20514932

model.blocks.1.mlp.0.weight f4 [32, 8]
000000 72 19 57 be 19 6d 2a 3b f8 3b 16 be 17 71 2c 3f
       -0.210058 0.0026004969 -0.14671314 0.6736006
000010 ca b2 10 be 1a f3 b7 be 53 c5 8d bf 08 ef 2d 3f
       -0.14130703 -0.3592766 -1.1075844 0.6794286
000020 3c b6 f8 bd c9 84 eb 3e c2 27 45 bf a8 37 20 be
       -0.121441334 0.45999745 -0.7701379 -0.15646231
000030 d9 ff 7a bf 0b 36 25 3f 46 f7 19 3f cc 27 f8 3d
       -0.9804664 0.6453559 0.60142934 0.12116966
000040 e5 a0 b7 bd 0b bd 65 3d 55 fd 26 3f e6 a8 44 bf
       -0.08966235 0.05608849 0.65230304 -0.7682022
000050 77 06 48 bb 51 28 57 bf 42 eb 9e 3e 23 bd 36 3f
       -0.0030521431 -0.8404589 0.31038862 0.7138235
000060 9e 8f 3e bf f8 48 ab 3e 71 09 a2 3f 2d d9 52 be
       -0.7443789 0.33454108 1.2659131 -0.20590658
000070 a0 b5 c4 bd 29 c5 c7 be b5 bb 8b 3e 44 67 41 bd
       -0.09604955 -0.3901761 0.27291647 -0.047217622
000080 4a 0b 09 3d 19 ab b9 3e 27 63 2a 3f 47 2f 1c bf
       0.03345803 0.3626335 0.66557544 -0.6100964
000090 fa fd 47 3c 01 2c 38 bf 64 7a 17 3f 26 59 05 3e
       0.012206549 -0.71942145 0.5917113 0.13022289
0000a0 28 ca d5 3e d2 cd 68 3c 17 1e fd 3c 2f 48 7c bf
       0.41755795 0.014209228 0.030898137 -0.98547643
0000b0 99 02 2c bf 85 72 b7 3e 33 ab fc 3e 34 57 a9 3d
       -0.67191464 0.3582956 0.49349365 0.08268586
0000c0 ae cd d0 3d 07 b9 d2 bf a6 1c b5 be 17 77 df 3e
       0.1019548 -1.6462716 -0.3537342 0.43645546
0000d0 26 67 90 3d b4 1d 58 3f 9b 7f 27 be 02 85 c7 3e
       0.07050924 0.84420323 -0.16357271 0.38968664
0000e0 f3 d7 fc be 94 af b3 be 40 73 59 3e 88 73 64 bd
       -0.49383506 -0.35094893 0.2123537 -0.05577424
0000f0 a4 3a 10 3f a7 ac 33 bf b5 e7 4c bf 17 80 24 3f
       0.5633948 -0.7018532 -0.80041057 0.6425795
000100 d3 ac d1 be 27 da 67 3f 25 b9 f1 be 02 bb 6d 3e
       -0.40952167 0.9056725 -0.47211567 0.23215869
000110 b8 a1 53 3f a5 59 30 3f da 64 40 bf 0c 57 d3 bd
       0.8266864 0.68886787 -0.7515389 -0.10319337
000120 36 99 3e bc 4b 68 0f 3d 4d bb 77 be 88 be a1 3d
       -0.011633208 0.03501157 -0.24192543 0.07897669
000130 ea 2b 04 3f a6 8a ba bf 5a 94 e0 3e db e3 0b 3f
       0.5162951 -1.4573562 0.43863183 0.54644555
000140 d9 c1 07 bf 18 ac ce 3e b1 4c e9 3e 42 3a 10 be
       -0.53030163 0.40365672 0.45566323 -0.14084724
000150 ab 59 a3 be 83 b0 f8 3e 72 3f 12 3f bf 6d 25 bf
       -0.3190435 0.48572168 0.5712806 -0.64620584
000160 e3 3e 18 3f 92 60 d3 3e 43 4f 2e be 6d e8 b5 bd
       0.5947096 0.41284615 -0.17022423 -0.08882222
000170 bc 98 9c 3e 3f 69 67 bf 13 c9 30 3e ed 50 a5 3d
       0.30585277 -0.9039497 0.17264204 0.08072076
000180 f5 de f4 3e d8 b3 02 bf 67 98 58 bf ee fe 38 bf
       0.47826353 -0.5105567 -0.8460755 -0.7226399
000190 c3 e3 06 b8 11 88 f0 bd 48 7b 1b 3f bf f0 19 3f
       -3.216021e-05 -0.117447026 0.6073499 0.60132974
0001a0 13 74 bf 3e 64 6e 39 3f 18 0f 49 3f f0 36 2d bf
       0.37393245 0.7243407 0.78538656 -0.6766195
0001b0 33 16 95 3e 1b 9f 00 be c5 76 06 bf a5 57 bb 3d
       0.291185 -0.12560694 -0.5252498 0.09147576
0001c0 93 61 f5 be 3b 82 d0 3e e8 81 4d 3e 60 cd fe 3d
       -0.47926006 0.40724358 0.20069087 0.12441516
0001d0 9a 22 2c 3f d5 2d dc 3e 3d d8 b2 3e 0d 2b 97 bb
       0.672403 0.43003717 0.34930602 -0.0046132863
0001e0 5e a2 21 bf 15 07 d0 3e e4 59 20 3f c0 95 3a bf
       -0.6313838 0.40630403 0.6263716 -0.7288475
0001f0 8e aa c5 bd c8 36 73 3e 85 f2 a6 3d 65 8c ea be
       -0.09651671 0.23751366 0.08151726 -0.45810238
000200 1d 50 9d 3e 6d 07 15 3f 37 0e 2a 3e ac 5b f2 be
       0.30725184 0.58214456 0.16606985 -0.47335565
000210 9c a9 53 be 90 2d 1e bf 0f 89 1c bf 67 fc 2a 3e
       -0.2067017 -0.6178827 -0.61146635 0.16697846
000220 dc fb 8f bd 52 d2 50 3f 0b dd 42 3e 1f b4 97 be
       -0.0703046 0.81570923 0.19029634 -0.2962961
000230 b4 5b eb be f0 34 38 3f d2 40 e1 be b4 dd 11 bd
       -0.459684 0.71955776 -0.43994766 -0.035611823
000240 ed ec 14 3f 83 20 82 3e a2 22 4c bf 56 08 87 3e
       0.5817402 0.2541543 -0.79740345 0.26373547
000250 be 8f 37 3d 36 17 97 3e 51 6a 39 bf ad a6 12 3f
       0.044814818 0.29509896 -0.7242785 0.5728558
000260 bc be f9 be ec eb 92 bf b9 21 6e be f0 38 a5 3e
       -0.4877833 -1.1478248 -0.23255052 0.32270002
000270 db 06 5f 3f 7f d6 d2 3e 73 55 86 3d 18 3c 79 3e
       0.87119836 0.41179273 0.06559267 0.2433933
000280 a0 44 51 bf f5 36 bb 3e 23 53 16 3f 41 9b 42 be
       -0.8174534 0.36565366 0.58720607 -0.19004537
000290 8b 88 57 3d 59 03 da 3e 44 89 1a 3e a3 65 b4 bd
       0.052620452 0.4258068 0.15091425 -0.08808448
0002a0 a2 a8 ac 3e 34 36 d3 3e 8e a5 5a 3e 4b eb ca bd
       0.33722407 0.4125229 0.21352217 -0.0990816
0002b0 d9 7c 27 3f 9c 33 cd be ba eb 72 bf d8 ea b1 bf
       0.6542488 -0.40078437 -0.9489094 -1.3899794
0002c0 20 08 fc be 9f d2 ac 3e 81 9f f5 bc a2 f5 24 3f
       -0.4922495 0.3375444 -0.029983284 0.64437306
0002d0 b1 36 e4 bc f2 27 12 bc d0 78 4b 3f 06 50 8f bf
       -0.02785811 -0.0089206565 0.7948122 -1.1196296
0002e0 7a 11 41 3e b0 af d6 bd 14 1f d3 bd 66 6e 97 3e
       0.18854323 -0.104827285 -0.10308662 0.29576415
0002f0 a7 eb cf 3e cb 9c 0b bf 9c c8 3d 3f 15 a0 bd bf
       0.40609476 -0.5453612 0.7413423 -1.4814478
000300 23 0f 95 3e cb 87 a9 bd d1 a0 80 bf 35 d2 93 3e
       0.2911311 -0.082778536 -1.0049077 0.28871313
000310 42 ce e2 3d ed 31 9b 3e 0a 81 61 3f fb 7f 06 be
       0.11074497 0.30311528 0.88087523 -0.13134758
000320 9a 4a e6 be 8c 89 d9 bb 50 b3 0d 3e ea 27 8d 3f
       -0.4497879 -0.0066387113 0.13837934 1.1027806
000330 46 59 cb be 1b 6d 8e 3e a5 64 4c bf a8 5e 85 3e
       -0.39716548 0.27817616 -0.7984107 0.2604878
000340 c3 b3 c9 be e9 73 62 bd a2 96 41 3f 59 d8 e0 be
       -0.3939496 -0.05528632 0.7562047 -0.4391506
000350 33 2a a1 bf 14 01 b6 be 17 14 b6 3e 06 19 6a 3e
       -1.2591003 -0.35547698 0.35562202 0.22861108
000360 8c 1c 91 be 44 5e 23 bf 8f 27 4f 3e 6f a4 84 3e
       -0.28342092 -0.6381571 0.20229934 0.25906703
000370 1b 63 58 3f 88 1a 09 bf e2 d5 02 3f fa b9 98 bf
       0.8452622 -0.5355611 0.5110761 -1.1931756
000380 32 3f b9 be fc d3 e0 3d 70 6c 05 3f aa 23 89 3f
       -0.36181027 0.10977933 0.5211859 1.0714009
000390 f3 76 96 bf 2c 92 d6 3e d0 e2 ae 3d 97 d1 4f 3d
       -1.175505 0.41908395 0.08539355 0.05073699
0003a0 fd d5 09 bf 59 92 a9 3e 11 b2 8c 3b b4 f0 24 bf
       -0.53842145 0.33119467 0.004293688 -0.64429784
0003b0 f8 44 5f 3e 2f 1e 87 3f 70 44 4f bf e4 0c 8c 3d
       0.21803653 1.0556086 -0.809638 0.06838396
0003c0 c4 d5 b1 be 7d c5 d9 be b2 28 32 3d 8b 1f 85 3e
       -0.34733403 -0.42533484 0.04349584 0.26000628
0003d0 35 38 80 3f a8 29 e2 bd 4b 29 0b 3f ed 03 e3 be
       1.0017153 -0.110431015 0.54359883 -0.44338933
0003e0 76 36 b2 3e 76 34 06 3f 8b 5f 0c bf be 93 5a bf
       0.34807175 0.524238 -0.54833287 -0.85381687
0003f0 be f5 8d 3e 1f e5 91 be 9f 76 74 bd bd 24 0f 3f
       0.2772655 -0.28495118 -0.05968344 0.55915433

model.blocks.1.mlp.0.bias f4 [32]
000000 11 dd 55 3d 6e de c1 3e 2a fb 08 3e 80 be 1b 3f
       0.05221278 0.37865013 0.13377061 0.60837555
000010 f5 2b 41 3e c1 8e b2 bd 87 8c 1c bf de 83 ff 3e
       0.18864425 -0.087186344 -0.6115193 0.49905294
000020 5d 40 a5 3e 99 ff 5a 3e 0e 01 6d 3e ff 3a 90 bd
       0.32275668 0.21386565 0.23144934 -0.070425026
000030 5f 3b da 3e bb 4a 33 3d ce 6e 83 bc 74 f3 9f 3e
       0.42623422 0.04377244 -0.016044047 0.31240427
000040 17 df f2 3e 55 ac fe 3e f1 3f 10 bd c6 8b ae 3e
       0.4743583 0.49740854 -0.03521723 0.34091014
000050 d1 5a 13 3f 29 84 45 bd 7d 6e 80 3e 81 73 9e be
       0.5756045 -0.04822174 0.25084296 -0.30947497
000060 91 5e ec be d1 3f 76 bc 86 1d 0a be b6 71 cd 3e
       -0.46165898 -0.015029863 -0.13487825 0.40125817
000070 bf ac d9 3c a5 c9 60 3e cf 8a f5 3e ac 12 84 3e
       0.02657163 0.21951921 0.47957465 0.25795496

model.blocks.1.mlp.2.weight f4 [8, 32]
000000 51 f4 0e be ac 5d ec 3c eb 76 a7 be bf 6e 5d bf
       -0.13960387 0.02885326 -0.32707915 -0.8649711
000010 fd 56 86 3d e4 12 e0 3e 06 1f 8f 3e 8a d2 9f be
       0.065595604 0.43764412 0.27953357 -0.31215316
000020 73 6a 5e 3e d4 05 12 be bd f8 f2 3d 97 d9 04 3e
       0.21720295 -0.14260036 0.11863849 0.12973629
000030 4f a3 b4 3e 43 cf f3 3d 06 46 0c bf c2 43 6b be
       0.35280845 0.119047664 -0.5479435 -0.22975066
000040 c8 e2 d9 bd d1 54 24 3e 50 e5 44 3f d9 f8 4d be
       -0.10638958 0.1604798 0.76912403 -0.20114459
000050 ca 52 cf be 2f a2 7d bf db 46 c6 3d 63 40 58 3f
       -0.4049285 -0.990756 0.09681483 0.84473246
000060 ed d5 af bd ce cb 92 be 58 95 1d bf 7d 3a 21 bf
       -0.08585725 -0.28671116 -0.61556005 -0.6297987
000070 53 43 e1 be 1f 35 9a 3e 5b 7a ea be e5 a2 b3 3e
       -0.43996677 0.30118653 -0.45796475 0.35085216
000080 25 8e e1 be 73 bc eb be 30 d5 3c be ea ad ab 3e
       -0.4405376 -0.46042213 -0.184407 0.33531123
000090 31 6f e8 3d 09 f5 e9 3c e2 b2 83 bf b2 f7 0b bf
       0.11349333 0.028559225 -1.0288966 -0.5467483
0000a0 e3 5b ad 3e 93 c0 0a bf 57 72 83 3f 62 f7 a8 bd
       0.33859167 -0.54200095 1.0269269 -0.082503095
0000b0 c8 ca 86 be 9f 19 fe 3d 29 10 59 3e 94 32 8a 3e
       -0.26326585 0.124072306 0.21197571 0.26991713
0000c0 dd 84 19 3f 46 07 8a 3f bb 33 67 3e 83 00 3d bf
       0.5996836 1.078347 0.22578327 -0.73828906
0000d0 67 c3 1a 3e 46 65 38 3f 72 23 27 3f 56 2d 81 3f
       0.15113603 0.7202953 0.6528846 1.009196
0000e0 d6 7c 48 bf 9f e3 f3 be d9 10 6b 3e 62 dd 11 3f
       -0.78315485 -0.476346 0.22955646 0.5697843
0000f0 32 6c 28 be 5f f8 50 3c 96 49 9d bd 6d ec c4 bd
       -0.16447523 0.012754529 -0.07680051 -0.09615407
000100 5b 09 9c 3d 79 7b 13 bf fd d8 43 3f 4f f7 21 3f
       0.07618972 -0.5761028 0.7650297 0.6326799
000110 43 1f 36 3f de 15 14 bf 00 40 62 3f b3 2d 67 3e
       0.7114145 -0.57845867 0.88378906 0.22576027
000120 18 78 86 bf 01 87 7b 3e 73 a7 ba bd bd 7a 18 3e
       -1.05054 0.24563219 -0.0911397 0.14890571
000130 be 13 8a be 72 fa ad bc f7 39 27 bf 5d 90 7f 3e
       -0.26968187 -0.021237586 -0.6532282 0.24957414
000140 89 f4 80 3e c8 2f 33 bf 93 d1 0e bf d1 c2 e5 be
       0.25186566 -0.69994783 -0.55788535 -0.44875196
000150 08 96 04 3e 15 5e 72 3e 64 5b 2c 3e f3 1c ba bd
       0.12947857 0.23668702 0.16831738 -0.09087553
000160 13 16 62 39 2a 85 8c be 88 7d 6b 3f 16 14 d3 bf
       0.00021561263 -0.27445346 0.9198842 -1.6490505
000170 d3 df 77 bd 24 4a dd be bf 58 a4 bf 3b ca ba be
       -0.06051619 -0.43220627 -1.2839583 -0.36482415
000180 76 87 6e 3f 78 7f 5d bf 94 fc 1c 3f 09 96 7a be
       0.93175447 -0.86522627 0.61322904 -0.24471296
000190 1c 50 de 3d 16 9a f8 be 92 de 2f be 5f 4b 4c 3f
       0.108551234 -0.48555058 -0.17174748 0.7980251
0001a0 4d b8 12 3f 21 58 24 3f 6e a8 3b bf ea 27 1d 3f
       0.5731247 0.64196974 -0.7330388 0.6138903
0001b0 ee 21 07 bf 0f ef aa 3e a0 ab 79 be c4 00 31 bf
       -0.5278615 0.33385512 -0.24381876 -0.69141793
0001c0 5c 09 85 3e ec bf c5 be 58 80 9e 3e 6b b7 0c 3d
       0.25983703 -0.38622987 0.30957294 0.03435461
0001d0 9a 46 fa be 84 8b 3e bf 5a 06 21 bf 50 85 10 bf
       -0.4888199 -0.74431634 -0.62900317 -0.5645342
0001e0 c1 bc 9d 3e 82 7f c3 3e de 3e 1d bf 9c 53 80 be
       0.3080807 0.38183218 -0.6142405 -0.2506379
0001f0 2c 39 2a be 9a ff 89 bc 10 98 57 bd 74 26 75 3e
       -0.16623372 -0.016845513 -0.052635252 0.2394045
000200 ce 74 04 be ff 9a f3 be 12 a1 e7 be 90 8d 85 be
       -0.12935182 -0.4757919 -0.45240074 -0.26084566
000210 ef 0c 74 be 86 d3 58 bf 23 05 1e 3e 62 e4 cd bc
       -0.23833059 -0.8469776 0.15431647 -0.025133315
000220 92 3e 95 3f f1 49 30 3e ae 73 24 3e 19 75 1a 3e
       1.165972 0.17215706 0.16059753 0.15083732
000230 66 9d 14 bf da 80 1d bd 0b c4 b3 3e 72 43 d7 3d
       -0.5805267 -0.03845296 0.35110506 0.10510911
000240 5a 6f af be 00 2d b2 be fc e6 bf 3e 28 84 51 3f
       -0.34264642 -0.34799957 0.37480915 0.8184228
000250 08 ad e4 3c aa 67 51 3f dc 92 cb be e4 ca 07 bf
       0.027914539 0.81798804 -0.39760482 -0.5304396
000260 26 49 82 bd 3a e7 a8 be 0d c8 61 bf 48 58 35 3e
       -0.06361608 -0.32988912 -0.8819588 0.17709458
000270 fc 90 96 be 64 86 9b bd f7 d7 cb 3e e4 08 12 be
       -0.2940749 -0.07593992 0.39813206 -0.14261204
000280 67 be 5c be a8 fb 58 3e e7 da 2b bf 9d a7 86 3e
       -0.21557008 0.21189749 -0.67130893 0.26299754
000290 9a aa 83 be 55 44 e2 be 37 81 c6 3e f2 4a 01 3d
       -0.25716096 -0.44192758 0.38770458 0.031565614
0002a0 52 4b db 3e 4b 65 45 bf 8d 44 a2 3e 6f 20 f0 be
       0.42830902 -0.77107686 0.31692925 -0.46899745
0002b0 5e c1 82 bf 22 07 17 bf 6d 92 07 3f 1e 7d e0 3d
       -1.0215261 -0.5899526 0.52957803 0.10961364
0002c0 b0 f2 e9 be 21 2d 0d 3e 01 44 2e bf 66 1b 13 3f
       -0.45692968 0.13786747 -0.68072516 0.5746368
0002d0 2d cd 18 3f a4 8c 1d 3f 84 0d 80 3c 93 4e e4 be
       0.59688073 0.61542726 0.015631445 -0.44591197
0002e0 4f 65 50 bc cc ce 73 3f 3c 79 5d 3e db 2c 97 be
       -0.012719466 0.9523742 0.21628278 -0.2952641
0002f0 f4 ba 5a 3f e6 02 bb 3d dd ce 6a 3e 84 a4 66 bf
       0.8544152 0.09131412 0.22930475 -0.9009478
000300 8f 6f 67 3e ae bd 9c bf 0c 39 02 be 4a 21 c8 3d
       0.2260115 -1.2245386 -0.12717074 0.097719744
000310 d0 0e 48 bd c6 4c b5 3e 08 94 bb 3e 84 56 79 3d
       -0.04884225 0.35410136 0.36636376 0.060873523
000320 a5 7c 90 3e 53 a3 31 bf e3 e8 2a be 06 17 0a bf
       0.28220096 -0.6938984 -0.16690402 -0.5394138
000330 b1 7f a9 be 0f 6f 3f 3f 88 d5 4c bc 88 7a ca 3e
       -0.33105233 0.74778837 -0.012502082 0.3954661
000340 91 7d 0b 3f 5a 9f f1 3e bc 9c da be 90 a4 e7 be
       0.54488474 0.47191888 -0.42697704 -0.4524274
000350 9e bc a3 3e fa 1e c2 be e1 dd 0e bf d8 ef 19 bf
       0.3197984 -0.37914258 -0.5580731 -0.601316
000360 14 aa 19 3f 4f c3 ab 3e 94 d7 99 be 58 9d 51 bf
       0.60025144 0.33547446 -0.30047286 -0.8188071
000370 74 9e db be 88 91 95 3f 11 81 25 bf f2 e6 f8 be
       -0.42894328 1.1685038 -0.64650065 -0.48613697
000380 0d a5 0c 3f ac 76 b7 3e 8a 90 03 bf b5 f4 45 bf
       0.5493935 0.35832727 -0.51392424 -0.7732652
000390 c7 7d 62 bf 20 a4 2a 3e cf f5 fc 3d 0a 72 db be
       -0.8847317 0.16664171 0.12351572 -0.42860442
0003a0 b4 9b 97 3d 02 07 31 bd 55 be c8 be ee 7c 07 3d
       0.07402745 -0.043219574 -0.39207712 0.033078127
0003b0 e4 9d b1 be db b6 c9 be 76 62 8f be 57 dd 29 bf
       -0.34690773 -0.3939732 -0.28004807 -0.6635336
0003c0 29 9f 92 3e 27 5d 04 3f 5a 07 18 3f 0b 77 a0 be
       0.28637055 0.5170464 0.5938622 -0.31340823
0003d0 60 80 42 be d0 72 86 be ae eb 57 3f 8e b1 4b 3f
       -0.18994284 -0.2625947 0.84343994 0.795678
0003e0 45 fa 23 bf bc 4a 43 3f 71 12 0e be d2 2f 4f be
       -0.64053756 0.7628591 -0.13874222 -0.20233086
0003f0 88 3c 55 3f 55 70 af bd 3e 93 7f be 47 be c4 bd
       0.8329549 -0.085663475 -0.24958512 -0.09606605

model.blocks.1.mlp.2.bias f4 [8]
000000 30 1a 89 3d 3c 17 b9 be d3 e3 a9 bd 64 ca b9 3c
       0.06694448 -0.3615054 -0.08295407 0.022679515
000010 91 cf b7 3d c7 9f dc bd f0 2e 73 bd 8f 17 42 bd
       0.08975137 -0.107726626 -0.059370935 -0.04738575

model.mlp_head.0.weight f4 [10, 8]
000000 96 ec ed be bb 6f 01 3f 8b d0 45 3d 6e e2 15 bf
       -0.46469563 0.5056111 0.048294585 -0.5854863
000010 ca 54 46 3c d2 a6 f9 3e bf 1a af bf 25 10 b7 3e
       0.012105176 0.48760086 -1.3680037 0.35754505
000020 14 19 21 3f 9e ae 9d bd bd 45 4e bf 15 70 74 bf
       0.6292889 -0.07699321 -0.8057516 -0.95483524
000030 95 7f f5 be 77 75 51 be 85 03 15 bc a1 a7 12 3f
       -0.479489 -0.20454966 -0.009095077 0.5728703
000040 28 d8 93 3e 86 1e 21 3f b4 7c 12 bf cb b7 6c 3f
       0.28875852 0.629372 -0.5722153 0.92467946
000050 7d 12 9b 3e 5f 5d 13 3d ec 43 21 3f e5 4b f1 3e
       0.30287543 0.035977717 0.62994266 0.47128215
000060 4e c2 c4 3e 4e 29 a1 bf 66 1b b0 3e 36 c8 1d 3f
       0.38429493 -1.259073 0.34395903 0.6163362
000070 1a aa 80 3d 63 32 c3 3e 83 7c 2b 3e 75 e9 da 3e
       0.06282444 0.3812438 0.16746716 0.4275624
000080 05 42 e1 bc ba e6 29 3f 76 bf bc 3e a5 72 12 bf
       -0.0274973 0.66367686 0.36864823 -0.57206184
000090 17 9b 38 bf f5 82 36 be d4 e0 08 3f a7 5f 17 bf
       -0.7211165 -0.17823394 0.5346806 -0.5913033
0000a0 5e a1 3c bf c3 d7 46 bf 83 b6 60 be c6 71 e3 3e
       -0.73683727 -0.77672976 -0.21944623 0.4442274
0000b0 9f 53 ea 3e 79 92 ec 3e ea df 1b be 29 60 27 bf
       0.45766923 0.462055 -0.15222135 -0.65381104
0000c0 24 e2 19 be 1d 88 3c 3f f8 3f dd bd 9e e4 25 bf
       -0.15027672 0.7364519 -0.10803217 -0.6480197
0000d0 18 2b 13 3f 2c f8 5c 3f 26 f8 1b 3f 89 9a 7e be
       0.5748763 0.8631618 0.6092552 -0.24863638
0000e0 1c 39 cb 3e 17 6c 26 bd 4f 7c 70 be 0d fd 02 3f
       0.39692008 -0.040630426 -0.2348492 0.51167375
0000f0 ca d1 8a 3d 63 41 42 bf d7 0f da be bb 96 8a bd
       0.06778295 -0.7588102 -0.4259021 -0.06767031
000100 cd ef 19 bf 6e 69 91 be 1a 9e ae 3e b9 2e 21 3f
       -0.6013153 -0.2840075 0.34104997 0.6296192
000110 a6 59 5d bf 11 6a 82 3e ad de b8 3e 9a 1c e8 3e
       -0.8646492 0.25471547 0.36107388 0.4533432
000120 96 e8 3f be d5 f6 7e 3d a2 b9 5b 3f 01 ad 4e 3e
       -0.18741068 0.062247116 0.8583013 0.20183183
000130 1d 70 73 bd 6e e5 c6 be 33 e6 e2 3c 81 9c 2c bf
       -0.05943309 -0.38846916 0.027697658 -0.67426306

model.mlp_head.0.bias f4 [10]
000000 0c 52 30 be 87 f0 8f 3e f9 9a ae bd 08 82 cd 3e
       -0.17218798 0.28113195 -0.085256524 0.40138268
000010 1a 41 40 3e 44 96 61 3e 8d 75 75 3e c2 87 fd 3c
       0.18774834 0.22029978 0.23970623 0.030948523
000020 6b c7 20 3e 98 fc 96 be
       0.15701072 -0.2948959

exp_avg f4 [1, 8]
000000 20 79 dd 3c 51 0f ed 3b 06 c2 ad bc f1 e6 5b bb
       0.027035296 0.007234492 -0.021210682 -0.00335544
000010 5e 16 bc bc 51 f2 b0 3c 27 5d e2 bc ff 86 96 3c
       -0.022959884 0.02159992 -0.02763231 0.018374918

exp_avg_sq f4 [1, 8]
000000 ba 9f 1f 3c ee 26 5c 3d 3b af eb 3c 92 0f e2 3c
       0.009742672 0.053748064 0.02877008 0.027595315
000010 91 f7 c1 3d fe ac 1e 3c ee c2 b4 3c db 88 4a 3c
       0.09471048 0.009684799 0.022065606 0.01236173

exp_avg f4 [8, 16]
000000 1b f8 9a bb 84 06 0e bb ce 3b 45 38 82 5d aa bb
       -0.0047292835 -0.0021671364 4.7024158e-05 -0.0051991353
000010 89 ae 31 bb ea e8 c4 3a 86 47 2e ba e4 ae 24 bc
       -0.0027112088 0.0015023027 -0.0006648231 -0.010051463
000020 56 7a d4 3a 9b c4 25 3b 68 f1 c7 bb 7f e1 9c bc
       0.0016210775 0.0025294188 -0.006101776 -0.019150494
000030 37 31 07 3a c2 8c 02 bc 83 7e ad bc 4a dc 01 bd
       0.0005157175 -0.00796813 -0.02117849 -0.031704225
000040 98 c1 d6 bc 06 d4 86 bc 15 b8 b1 bb 8b bc 1d bb
       -0.02621536 -0.016458523 -0.0054235556 -0.002406868
000050 5d 14 a2 bc 56 b2 04 bc d0 c9 da 3b 6e 17 14 3c
       -0.0197851 -0.008099159 0.00667689 0.009038789
000060 33 4b 28 bc d3 35 1b 3c 02 be 93 3c dd 95 9d 3c
       -0.010271835 0.009473282 0.018034939 0.0192365
000070 70 a5 0f 3c 62 a4 a4 3c 00 d0 bb 3c 7b b3 bb 3c
       0.008767471 0.020097915 0.02292633 0.022912731
000080 e1 c3 4b bc bc 41 04 bc d4 61 c9 3a 5e f1 e3 3b
       -0.012436838 -0.008072313 0.0015364238 0.0069562634
000090 5d c1 91 bb 65 2b 37 bb be 60 80 3b 1f 5d 43 3c
       -0.0044480995 -0.002794945 0.0039177826 0.011924057
0000a0 2d 55 02 3a 42 e8 71 3c 50 df 89 3c 40 06 98 3c
       0.00049717986 0.014764847 0.016830117 0.018557668
0000b0 28 d7 9b 3c 78 2d 10 3d 17 ea 09 3d 67 12 62 3c
       0.019023493 0.035199612 0.03367051 0.013798333
0000c0 20 e8 28 3d e8 bb 13 3d 10 27 d9 3c 9d bb 86 3c
       0.041236997 0.036067873 0.026507884 0.016446883
0000d0 ed f8 ce 3c e7 03 08 3d f6 ba b9 3c f4 bf 24 3c
       0.025265181 0.033206847 0.022672158 0.010055531
0000e0 fe 7c ca 3c 44 63 95 3c 6f 8a 0f 3c 67 67 a6 3b
       0.024717804 0.01823581 0.0087610325 0.0050782445
0000f0 b3 24 10 3c c2 84 47 3b e8 d9 59 3b d1 70 9a 3c
       0.008797812 0.003044412 0.0033241455 0.018852623
000100 e0 72 1f bc 75 ca 94 bc d9 be a0 bc fb f2 84 bc
       -0.009731978 -0.018162945 -0.019622253 -0.016229143
000110 5b be 3e bc a2 1d af bc 0c 77 8a bc 82 ca 8b bc
       -0.011642064 -0.021376435 -0.01690247 -0.017064337
000120 f7 1f a8 bc 61 6c ce bc 1e 99 4b bc 55 8b 7e bc
       -0.020523055 -0.025198163 -0.012426643 -0.015536149
000130 e4 dd a0 bc 27 f4 c2 bc c1 e2 66 bc da 29 93 bc
       -0.019637056 -0.023798062 -0.014092148 -0.017964292
000140 f4 21 8d 3c 46 16 84 3c 8d 34 ce 3b e3 cb 06 3c
       0.017228104 0.016123902 0.0062928856 0.008227321
000150 d4 6c 8d 3c 7c 6f 0c 3c c7 e9 02 ba e4 9b 1b 3c
       0.017263807 0.008571502 -0.0004993942 0.009497616
000160 f1 e5 8f 3c 35 c8 be 3b 40 45 03 3b 7d 6d 86 3c
       0.0175657 0.0058222064 0.002003029 0.01640963
000170 28 18 93 3c 3f 90 46 3c 50 1a c2 3b 96 53 57 3c
       0.017955855 0.012119352 0.005923547 0.013142487
000180 4f b3 0f bc eb fc 1b bb 06 5d 92 bb 7a cc 6e 3b
       -0.008770778 -0.0023801874 -0.0044666557 0.0036437795
000190 76 0c 9d 3a 15 76 f7 b9 38 18 c6 b9 11 4e bf 3b
       0.0011981863 -0.0004719949 -0.00037783547 0.0058381637
0001a0 34 93 cc ba 4b 7d a6 bb e9 a7 4a bb 56 e0 60 bb
       -0.0015607835 -0.005080854 -0.0030922836 -0.0034313402
0001b0 88 d9 66 bc 50 3e 84 bc 66 61 81 bc c7 d3 25 bb
       -0.014089949 -0.016142994 -0.015793514 -0.002530323
0001c0 a3 13 60 3b 2b 39 a2 bb 25 a3 9f bb 1a 6b 3b bc
       0.0034191392 -0.0049506626 -0.0048717433 -0.011439109
0001d0 4b 73 a8 bb 0f a8 2c bc 40 d9 72 bc bb 99 9d bc
       -0.005140697 -0.010538115 -0.014822304 -0.019238343
0001e0 f7 5c 45 bc 3b 51 a8 bc 49 ad c4 bc 3d 60 ad bc
       -0.01204609 -0.020546546 -0.02400841 -0.021164054
0001f0 49 c3 ae bc 38 bf b8 bc 7e 29 72 bc 5f 3a 87 bc
       -0.021333354 -0.022552118 -0.0147804 -0.016507326
