vit/models/vit_pl_model.pth (torch, 22148 bytes, 45 tensors)

model.class_token f4 [1, 8]
000000 44 a4 f5 3e b4 e9 74 3e 65 d9 21 3f 65 6b 9c 3e
       0.47976887 0.23917276 0.6322234 0.30550686
000010 b4 dc 2c 3f ae ff 48 3e a3 a9 2e bd ef 17 91 3e
       0.67524266 0.19628784 -0.042642247 0.28338572

model.linear_mapper.weight f4 [8, 16]
000000 41 7e 9f be f0 57 05 bf 23 1d 24 bf 15 de cb be
       -0.31151012 -0.52087307 -0.6410696 -0.39817873
000010 5c 5c fb bd ba 21 66 be 77 d6 3b be 5c e8 92 bd
       -0.122734755 -0.22473803 -0.1834353 -0.07173225
000020 36 6a b9 3d b4 b0 90 be db 47 0d bd 5d 8c bb 3d
       0.09053461 -0.28259814 -0.034492355 0.091576315
000030 57 c4 a3 3e 2c e7 2c 3d 25 ad 93 bd 94 e3 7a be
       0.31985733 0.04221265 -0.07210759 -0.24500877
000040 31 3a 6d 3e b1 66 f0 3e f6 2a d6 3e 06 13 2b 3f
       0.2316673 0.46953347 0.41829652 0.668259
000050 c2 42 7d bc 82 44 41 be 76 bb 00 be c0 76 60 3d
       -0.015457811 -0.1887379 -0.1257151 0.05480075
000060 80 37 b8 bd 87 e8 8b bd 37 ff 3c 3e d8 61 53 3d
       -0.08994961 -0.068314604 0.18456732 0.051606983
000070 12 04 81 3e 4c 5a 68 3d 09 86 95 3d 7b 9c c0 be
       0.25198418 0.05672674 0.07300956 -0.37619385
000080 e9 88 a8 be 13 17 17 be 0f 0a 85 bd b4 5e f1 bd
       -0.32916954 -0.14754896 -0.06496059 -0.11785641
000090 fe 78 b5 3d 27 f9 b8 3d 89 3b bd 3e 0d 91 17 3d
       0.08860968 0.09031897 0.36959484 0.037003566
0000a0 be 5e 74 bd 80 64 b9 3d 41 56 30 3e d6 4f c0 3d
       -0.059660666 0.09052372 0.17220403 0.093902275
0000b0 b0 a3 1b 3f c3 0e c9 3e af a5 a9 3e 4a 08 2d 3e
       0.6079664 0.39269075 0.3313422 0.16897693
0000c0 51 f8 0f 3e d3 08 f6 3d dd 32 24 3e e5 26 29 3e
       0.14059569 0.12013402 0.16035028 0.16518743
0000d0 14 21 32 be 89 5a 74 3d 23 98 6c bc d6 ed d6 3e
       -0.17395431 0.059656654 -0.014440569 0.4197833
0000e0 7b 73 6e be 0d a5 8c bd 4b 65 36 be 14 0d d1 3e
       -0.2328624 -0.068674184 -0.17812078 0.4083029
0000f0 4a c5 72 be 6d d9 c6 bd 5f c5 86 3d 24 ad af 3e
       -0.23708072 -0.097094394 0.06580614 0.34311783
000100 a6 3c c6 3d a8 ea e7 3c 43 55 17 3d 89 50 84 3d
       0.096795365 0.028310135 0.036946546 0.06460673
000110 00 a6 96 3e e3 30 1f 3d 10 96 a5 3e a0 56 8c 3e
       0.29423523 0.03886498 0.3234105 0.2740984
000120 15 01 67 3d ae d2 69 3e 63 ef 6a 3d e0 24 71 3e
       0.056397516 0.22834274 0.057357203 0.23549223
000130 e5 06 cb 3e e9 04 46 3e 12 20 d5 3d d4 42 db 3d
       0.39653698 0.1933781 0.104065076 0.10706106
000140 ce 0e 31 3f f8 8f 05 be e0 95 c0 bd e7 81 df be
       0.69163215 -0.13043201 -0.094035864 -0.43653795
000150 35 47 a2 3e 46 aa eb 3c 66 26 e5 bd 83 84 82 be
       0.31694952 0.028767716 -0.111889645 -0.25491723
000160 6c a7 f0 3e 47 0e 9e bd 90 23 f5 bd e3 ca 51 bd
       0.47002733 -0.07717567 -0.11969674 -0.05121888
000170 03 c7 74 3e c1 47 09 be a2 d7 0e bf ca c8 e1 be
       0.23904042 -0.13406278 -0.5579778 -0.44098502
000180 22 d9 fb 3d dc f6 30 3e 30 42 e1 3d aa 1b 38 3b
       0.12297274 0.1728167 0.109989524 0.002809266
000190 dd d0 95 be c4 30 45 bd 1f 84 36 be 48 1e 6f 3c
       -0.29260913 -0.04814221 -0.17823838 0.014594622
0001a0 d9 1b 32 3c 02 fd c9 bc 8a a3 b4 3c e4 ec 0c 3e
       0.010870897 -0.024656776 0.022050638 0.13762242
0001b0 44 a2 a1 3b dc 26 0d be 28 20 d1 bd 2a 45 2c be
       0.0049326736 -0.13784355 -0.102112114 -0.16823259
0001c0 c7 07 3b be 93 b7 35 3e f6 42 21 3e bd c6 02 3f
       -0.18264686 0.1774581 0.157482 0.510845
0001d0 2b d9 b7 be 24 b5 f5 bd b5 4d c1 bd 1e 4f bf 3e
       -0.35907874 -0.119974405 -0.094386496 0.3736505
0001e0 2e cb c2 be 20 bf 18 bc 35 25 a5 bd 37 ba 08 3e
       -0.3804564 -0.0093229115 -0.08063737 0.13352285
0001f0 0b 94 19 bf 81 7f 78 be 22 e5 7a bd 53 98 46 3e
       -0.5999152 -0.24267389 -0.061253674 0.19394045

model.linear_mapper.bias f4 [8]
000000 28 4c 28 3e 9a 16 06 be 92 fa 37 3d d1 4e 14 3f
       0.16435301 -0.1309456 0.044916697 0.57932764
000010 f3 6c 67 3e 23 ca 53 3d da 1c ec bd 4c 04 0c bf
       0.22600155 0.051706444 -0.115289405 -0.54694057

model.blocks.0.norm1.weight f4 [8]
000000 d7 c4 97 3f 13 eb 8f 3f 60 1c 73 3f 98 42 9e 3f
       1.1856946 1.1243614 0.9496517 1.2364073
000010 76 59 8d 3f 30 24 54 3f 57 d5 8a 3f a5 ed 64 3f
       1.1042926 0.8286772 1.0846356 0.89425117

model.blocks.0.norm1.bias f4 [8]
000000 0b 7f 04 bb 11 cc 03 3e 4c 2f dc bd a7 b6 5d 3e
       -0.0020217325 0.12870814 -0.10751209 0.21651708
000010 65 d6 b9 bd 36 23 19 be ba 18 ca 3d 9f 1e d3 3c
       -0.09074096 -0.14954838 0.098679975 0.025771437

model.blocks.0.mhsa.q_mappings.0.weight f4 [4, 4]
000000 a1 91 b4 3e 72 86 48 bf 79 94 54 3e a5 82 39 bd
       0.35267356 -0.7833015 0.20759763 -0.045290608
000010 e3 5a 75 3d b3 38 12 be 57 05 77 3e ae b2 5c be
       0.05990113 -0.14279442 0.2412313 -0.21552536
000020 cc 0c e5 3e b5 66 7b bc 54 cf f2 be f7 71 13 3f
       0.44736326 -0.0153443115 -0.47423804 0.5759577
000030 f0 a9 16 3e 47 32 63 3e c5 66 a7 3e 50 05 ba 3e
       0.14713264 0.22187148 0.32695594 0.36332178

model.blocks.0.mhsa.q_mappings.0.bias f4 [4]
000000 23 7b 5b bf 81 7e 5e 3c a9 3e 14 3e 75 44 e8 3e
       -0.85734767 0.013579966 0.14477028 0.4536473

model.blocks.0.mhsa.q_mappings.1.weight f4 [4, 4]
000000 e6 cf 8f 3c 4d 92 91 3b 4d 5e 43 3b 4c 16 d5 3e
       0.017555188 0.0044424892 0.0029810846 0.41618574
000010 b3 3b 89 be 8d 86 98 be 97 ba c0 be 14 a7 03 3e
       -0.2680336 -0.29790154 -0.37642357 0.12856704
000020 f2 9c 9b bd 21 47 c6 3e 29 4f c6 be a7 51 0e 3e
       -0.07598294 0.38726142 -0.3873227 0.13898335
000030 a9 f3 da be 73 cb 44 bd e2 da 28 bf 7c 5e 2e be
       -0.42764023 -0.048045587 -0.6595899 -0.1702823

model.blocks.0.mhsa.q_mappings.1.bias f4 [4]
000000 48 25 b9 3e 5d 14 e7 bd 92 a5 07 3f d4 14 d1 3e
       0.36161256 -0.11283181 0.52987015 0.40836203

model.blocks.0.mhsa.k_mappings.0.weight f4 [4, 4]
000000 13 c7 96 3e 9d 81 41 3e ee ca bf bc b2 31 9f 3f
       0.29448757 0.188971 -0.023412194 1.2437041
000010 5f ba c0 be 53 65 b2 be 54 76 88 be f6 10 6a 3e
       -0.3764219 -0.3484293 -0.26652777 0.22858033
000020 65 e6 e3 3e e1 09 9c 3e 29 b5 80 be 7a 8e 6a bd
       0.44511715 0.30476287 -0.25138214 -0.057264782
000030 2e 80 86 3e ff 35 26 be ca 36 91 3e 06 68 6a bf
       0.26269668 -0.16231535 0.28362113 -0.9156498

model.blocks.0.mhsa.k_mappings.0.bias f4 [4]
000000 09 40 cc 3e 79 fc c3 3e 3b 91 9c 3e 17 21 d6 be
       0.39892605 0.3827856 0.30579552 -0.4182212

model.blocks.0.mhsa.k_mappings.1.weight f4 [4, 4]
000000 d5 81 d2 3e dc ef ff bc d3 78 15 bf 46 2e 22 3e
       0.4111468 -0.031242304 -0.5838749 0.15837964
000010 dd f5 23 be 30 84 c0 be 7a df 6a bf 6b 49 dc 3d
       -0.16011758 -0.3760085 -0.9174725 0.10756191
000020 61 f9 cd 3e 6a d0 fd 3c 82 b7 43 bf a4 49 92 be
       0.40229324 0.030983169 -0.76451886 -0.28571808
000030 aa 50 de 3e 54 29 6e 3d b2 fc 8f bf be 91 a4 be
       0.43420917 0.058144882 -1.1248991 -0.32142442

model.blocks.0.mhsa.k_mappings.1.bias f4 [4]
000000 13 df b7 be 67 d1 79 3e 52 52 de 3d 01 95 5c 3e
       -0.3591238 0.24396287 0.10855545 0.21541215

model.blocks.0.mhsa.v_mappings.0.weight f4 [4, 4]
000000 83 5d b1 3d f6 89 74 be e1 97 a6 3f 45 15 5d 3e
       0.08660414 -0.23880753 1.30151 0.21590145
000010 65 ff f3 3c d3 21 6a 3f 71 08 da 3d f5 0d 95 3c
       0.029784868 0.9145786 0.10646141 0.018195132
000020 76 cc a4 3c 2f f5 26 be 7c 69 1e 3f b6 6d d6 be
       0.020117026 -0.16304468 0.61879706 -0.41880578
000030 b9 4f 64 3f d0 eb 74 3e 0b 85 79 3c b5 14 bc 3d
       0.8918415 0.2391808 0.015229474 0.09183637

model.blocks.0.mhsa.v_mappings.0.bias f4 [4]
000000 d4 6a f0 3e c2 74 38 3e ea 13 57 be 69 b0 5c 3e
       0.46956503 0.1801329 -0.2100369 0.2155167

model.blocks.0.mhsa.v_mappings.1.weight f4 [4, 4]
000000 ba fd 26 bf 98 f2 38 be 28 31 aa bd 2d a5 12 3f
       -0.65230906 -0.18061292 -0.08310157 0.5728329
000010 6a 4b 35 3e 6d b8 cb be 01 a7 83 be 3a 68 b5 3d
       0.1770455 -0.39789143 -0.2571335 0.0885777
000020 c5 52 9d 3e ec b0 35 be 8c c7 35 be b5 ce 25 bf
       0.3072721 -0.17743272 -0.17751902 -0.64768535
000030 0c d8 b4 be 1e 3c dc 3e bb b8 b7 3e 65 f4 a7 be
       -0.3532108 0.43014616 0.35883126 -0.32803646

model.blocks.0.mhsa.v_mappings.1.bias f4 [4]
000000 4a 3e 2b 3e 7a c7 96 be 19 6e f6 bc 04 fb 66 3c
       0.1672298 -0.29449064 -0.030081796 0.014097933

model.blocks.0.norm2.weight f4 [8]
000000 06 cf a4 3f c7 a2 90 3f 94 30 c2 3f fb 9e 8c 3f
       1.2875679 1.1299676 1.5171075 1.0986017
000010 27 15 b6 3f 7b 65 9d 3f ea e5 70 3f c8 d0 b7 3f
       1.4225205 1.2296594 0.9410082 1.436059

model.blocks.0.norm2.bias f4 [8]
000000 68 cf 3c 3e a8 2d 64 bd 7b 67 38 be db 9f 57 be
       0.18438494 -0.055707604 -0.18008225 -0.21057074
000010 30 50 26 bc 28 9c 4c be b9 58 82 3e ba b1 cb bd
       -0.010150954 -0.19981444 0.25458315 -0.09946008

model.blocks.0.mlp.0.weight f4 [32, 8]
000000 22 2e 0d be 5c 94 1f be f3 cf 89 3e 35 f2 50 be
       -0.1378713 -0.15583938 0.26916465 -0.20404895
000010 d1 3f 87 be 0a 28 dd bd 5f 6d 85 3c fd e3 a9 3e
       -0.26415876 -0.107986525 0.016287504 0.33181754
000020 55 b4 20 be 6b 50 45 3f 02 fa a6 3e 22 db 1c be
       -0.15693791 0.77075833 0.32612616 -0.15317968
000030 30 1f c2 bd 71 26 23 3f 48 b9 9a be 40 18 04 bf
       -0.09478605 0.6373053 -0.30219483 -0.515995
000040 1d a4 78 be d5 d7 21 3f 73 d9 60 3e e6 1e 7c bc
       -0.24281354 0.6321996 0.2195795 -0.015388226
000050 4b c6 7e bd ba 1c a1 bd 4e e9 fd 3d 48 c6 bb bd
       -0.062200826 -0.07866807 0.12398015 -0.091686785
000060 d2 0e c8 3e d3 72 ab 3e d9 6d 03 be e0 4e 35 be
       0.39073807 0.3348604 -0.12834872 -0.1770587
000070 b9 23 e9 be e2 26 35 be 53 1d 4c 3d ef 11 28 bf
       -0.45535067 -0.17690614 0.049832653 -0.65652364
000080 58 46 50 3e c2 b1 f0 3e b1 90 ae be c6 03 e7 3e
       0.20339334 0.47010618 -0.34094766 0.45120066
000090 7c 52 e1 bd cb 7b 83 bf 89 f6 c4 3e 14 67 79 bf
       -0.11002061 -1.0272154 0.3846934 -0.9742291
0000a0 c1 21 54 3f ac e2 89 3e a4 8b 80 bd 71 36 79 3e
       0.82864004 0.2693075 -0.06276634 0.24337174
0000b0 28 af 9f 3e c9 58 68 bf 94 ad 44 bd fc 0d 04 bf
       0.3118832 -0.90760475 -0.0480171 -0.5158384
0000c0 7e b5 54 3e 92 45 40 3e a2 8f 82 be c6 fa 37 be
       0.20772359 0.18776539 -0.25500208 -0.17966756
0000d0 0e d0 94 3e 49 fd 3a bf 7f 85 b2 3b fe 90 c5 3e
       0.29064983 -0.7304273 0.005448043 0.38587183
0000e0 8d c0 8a 3f af 61 d7 be 7c 03 a7 3e 8f 77 b9 bd
       1.0840012 -0.42066714 0.32619846 -0.09056007
0000f0 e6 88 86 3e c0 7c a0 be 03 53 3f bd 67 b4 68 be
       0.2627632 -0.31345177 -0.046710026 -0.22725068
000100 12 b7 ad be c4 c2 e1 3e b5 5c 8f 3d 8d bf a3 be
       -0.33928734 0.44093907 0.07000104 -0.3198208
000110 38 dd 01 3d c7 58 fb 3e f8 f3 c8 be 6a 47 be bd
       0.03170511 0.4909117 -0.39248633 -0.09290965
000120 11 91 09 3d 41 ea f1 be 09 4d ec be d0 c4 e8 3e
       0.03358561 -0.47249034 -0.46152523 0.45462656
000130 85 62 bc 3d 82 d0 ce 3e 58 6c a9 3d 3b 23 1b 3f
       0.091984786 0.40393454 0.08272618 0.6060063
000140 8b 63 89 3e 77 b5 d9 3e 97 8d f2 be b2 e0 8b be
       0.26833758 0.4252126 -0.4737365 -0.27319866
000150 54 e7 08 3f 2a eb e2 be ab e7 13 3f 56 41 ec be
       0.5347798 -0.4432004 0.5777537 -0.46143597
000160 aa 8c 9b 3d 57 e4 d7 be b5 0f 1a bf a4 93 73 3e
       0.07595189 -0.42166397 -0.6018022 0.23786789
000170 2f fb 9d 3e 43 ab f0 bc 59 5f cd bd 5f 14 1c 3f
       0.308557 -0.029378539 -0.10027952 0.60968584
000180 75 89 89 3f b2 17 9a be ce 8e 15 bd 8b 6c 94 3e
       1.0745074 -0.30096203 -0.036513142 0.28989062
000190 1d 6e 5f bc df cb 47 bf f2 66 23 3c ba 4b 86 be
       -0.013637093 -0.7804546 0.009973275 -0.2622965
0001a0 c5 3c 3c bb 27 8a 3f 3f be 09 01 bd 70 12 e7 bd
       -0.0028722745 0.7482018 -0.03150343 -0.112828135
0001b0 5e 25 01 bf 12 b5 86 3e 96 65 9a bb 60 72 18 bf
       -0.5044764 0.2631002 -0.004711817 -0.5954952
0001c0 f9 eb 13 be bf 0e 16 be dd bb 38 be 7b 7a 33 3f
       -0.14445485 -0.14654063 -0.18040414 0.70108765
0001d0 62 4b 10 bf 2f 28 eb be 43 9e eb 3d 92 86 28 bf
       -0.56365025 -0.45929095 0.115047954 -0.6583034
0001e0 0c 34 6b be 28 bf e2 bd 6b 62 f6 be c0 06 33 bf
       -0.22969073 -0.110716164 -0.48121962 -0.69932175
0001f0 2c ce af 3e 69 47 7e 3e 39 ac d7 3e b6 2b 51 3f
       0.34336984 0.24831928 0.42123583 0.8170732
000200 b6 21 e6 3e ea ac 9c 3e 69 a8 97 be c1 98 ee 3e
       0.44947594 0.30600673 -0.29620674 0.46600917
000210 fe 67 70 3e 0f 37 57 3f b0 61 83 be 4c 97 09 bf
       0.2347717 0.8406839 -0.25660467 -0.53746486
000220 6c 6d 85 3e 8a bb 01 3e 57 2f 91 be 6e 6f 52 be
       0.26060045 0.12669197 -0.2835643 -0.2055032
000230 31 cc 2e be 8b e6 53 bf 66 2e 9d be 0e 5f 4c bf
       -0.1707008 -0.82773656 -0.30699462 -0.7983254
000240 17 93 84 3d 12 f7 ad bd 08 7e 26 bf eb 56 d0 3d
       0.06473368 -0.084943905 -0.6503606 0.10172828
000250 84 fb 67 bd c5 cb 77 3e ab 6a 9a ba ba 1f 35 3f
       -0.05663635 0.24198826 -0.0011781057 0.70751536
000260 a9 c0 06 be 5c 4f 88 be eb 20 94 3e ed 35 e4 3e
       -0.13159432 -0.26623046 0.28931364 0.44572392
000270 78 0c 07 3e 58 10 7a 3d a3 5e d8 3d eb af 70 bf
       0.1318835 0.061050743 0.105649255 -0.9401843
000280 0d f6 69 3e 3d 46 49 3d b4 22 e2 be 62 d6 54 be
       0.22847767 0.04913925 -0.441671 -0.20784906
000290 2e 64 99 bd 68 59 ad 3b 52 0f 7b 3e 3a f6 51 bf
       -0.07489811 0.005290199 0.24517563 -0.82016337
0002a0 1e c5 02 bf 86 49 4c be b3 d5 f5 3e 49 95 93 3c
       -0.51082027 -0.19949922 0.48014602 0.01801552
0002b0 3d 43 e8 bd d9 78 79 3e 82 62 61 bb 14 94 a6 3d
       -0.1134095 0.24362506 -0.003439099 0.081337124
0002c0 ed 8d d2 3e be 82 c3 be 3a 3b 97 bd 13 9c 64 be
       0.41123906 -0.38185686 -0.073843434 -0.22325163
0002d0 46 5c 6c 3f 5e e2 1a 3b eb 93 6d 3e 48 35 9c 3e
       0.923283 0.002363346 0.23200957 0.305094
0002e0 1f 95 40 be 31 59 b1 be 79 38 2f 3e b1 ae 00 3f
       -0.18806885 -0.3463836 0.17111386 0.5026656
0002f0 32 6a 11 bf 80 79 a4 3d 5b ad cb 3e 5f 72 f5 be
       -0.56802666 0.08030987 0.39780697 -0.4793882
000300 d2 b5 b7 3e 1a fb 1e be f8 66 13 bf 1e 12 2a 3c
       0.35880905 -0.15525475 -0.5757899 0.010380296
000310 c6 85 9b 3f 32 59 2f 3e 6b 08 27 3e 83 44 b2 3e
       1.21502 0.17123869 0.16311805 0.34817895
000320 c1 48 da be 6e 7b bf 3e 59 47 3b 3f f5 10 e0 be
       -0.42633632 0.37398857 0.7315574 -0.43762937
000330 3e 3c 15 be f1 fe b0 3e d6 ad 6e 3f 27 c9 1a 3e
       -0.14573762 0.34569505 0.93234 0.15115796
000340 5f 2c 1a bd 47 df 1a 3f 47 fa 1c 3e cd 75 2e bd
       -0.03763997 0.60496944 0.15329848 -0.042592812
000350 fc 10 57 3e b7 ac 1f bf 3d 38 65 be c5 38 bd be
       0.21002573 -0.62372917 -0.22384734 -0.36957374
000360 6c 10 33 3d 57 a4 80 3d b5 0e 8d 3e 86 59 e3 be
       0.043716833 0.06281345 0.27550283 -0.44404238
000370 6d 7c 61 be d5 06 11 3f 9b df 13 3e a4 0f 46 bf
       -0.22020121 0.5665105 0.14440767 -0.77367616
000380 6b 90 18 3e bb d9 cd bd 1e a7 46 3f 75 d5 94 3e
       0.14898841 -0.100512944 0.7759875 0.29069105
000390 a6 34 55 be bb 0f 1a be b5 00 96 be c6 08 57 bf
       -0.20820865 -0.15045063 -0.29297414 -0.8399776
0003a0 bd a5 b8 3e d6 9b 88 be be a1 41 bf 57 ca d4 3e
       0.36063948 -0.26681393 -0.75637424 0.41560623
0003b0 5f 6f 07 3f f7 6e f4 3d 3f 58 4f be ff ec dd 3e
       0.52904314 0.11935227 -0.20248507 0.43344876
0003c0 e0 41 80 3f cd b6 b1 bd 16 8b 26 bf 3d 4f 89 3e
       1.0020103 -0.086774446 -0.6505598 0.26818267
0003d0 6b 37 3a bf a7 3a 12 3d 5c 47 0e 3e 3a 86 0d be
       -0.7274081 0.035700466 0.13894409 -0.13820735
0003e0 88 bf df be e3 c5 d3 3e 12 1e f0 3e b5 4b 10 3f
       -0.43700814 0.41361913 0.46897942 0.5636552
0003f0 0c 34 da be c1 0e 3c 3e c5 5e 17 3c c4 73 e7 be
       -0.42617834 0.18365003 0.009238903 -0.4520551

model.blocks.0.mlp.0.bias f4 [32]
000000 92 2b 80 be 29 5a 19 3c 19 dd b0 3d 91 de e4 bd
       -0.25033242 0.009359875 0.08635921 -0.11175264
000010 3d 28 d3 3d 31 ca 0e 3f 2b 1b 66 3d 18 18 a4 be
       0.10310409 0.5577727 0.056178253 -0.32049632
000020 70 af 04 3e 93 ad bf bb e0 5d b0 3e cb 45 62 3e
       0.12957549 -0.005849549 0.3444662 0.22096936
000030 ff e4 cf be dc 2a 22 3d 19 42 94 bc 3e 9e 0d 3d
       -0.40604398 0.039591655 -0.018097924 0.03457474
000040 89 8a e2 bb 2e bc 8d 3e 5d 09 10 bd 49 53 eb bd
       -0.0069134873 0.27682632 -0.03516518 -0.11490495
000050 9a 60 ce 3d 72 14 05 3e 91 38 9a be 71 bd 55 3e
       0.10077019 0.1299608 -0.30121282 0.20873047
000060 0e f2 b2 3e 8d cd 99 3c d6 52 1f bd 18 37 d9 be
       0.34950298 0.018774772 -0.038897358 -0.42424846
000070 72 66 ca bc c4 49 22 3d fc eb 68 be 4e a3 80 be
       -0.024707053 0.03962113 -0.22746271 -0.25124592

model.blocks.0.mlp.2.weight f4 [8, 32]
000000 5d 13 5c 3e 45 04 88 3e 22 8f 64 bc b1 c1 60 be
       0.21491762 0.26565757 -0.013950141 -0.21948887
000010 4a b0 9d be 84 c7 e0 be 0b f3 1e be 06 09 38 be
       -0.3079856 -0.43902218 -0.15522401 -0.17972192
000020 06 df 16 3f 73 81 33 3f cf 0d 03 bf 3f 4d b7 3e
       0.58934057 0.701194 -0.51192945 0.35801122
000030 4a 9c 68 bd 9a 0e 08 3c a5 f2 c4 bd a1 12 cb be
       -0.056789674 0.0083042625 -0.09616593 -0.3966265
000040 7f cf c1 bc 07 27 06 bf 44 df b8 3e df e2 2d bd
       -0.023658512 -0.524033 0.36107838 -0.04245269
000050 66 31 55 bc 6f 64 9c 3e 45 2c 1b be ee 1e fc bd
       -0.013012266 0.30545375 -0.15153606 -0.12310587
000060 af 3a 93 be 8b b5 bc 3e a1 34 6b be 77 0a 87 3e
       -0.2875571 0.36857256 -0.22969295 0.26375172
000070 57 7b 27 bd 4c 4f 8c 3e e2 a4 35 be a4 fd 67 3e
       -0.04088911 0.2740425 -0.17738679 0.2265535
000080 ed 78 00 be 8c a8 35 3e ce a8 1e 3e 37 f7 b4 3e
       -0.1254613 0.17740077 0.15494081 0.3534486
000090 4d 2e 18 3f 2d 94 a1 3e bf f5 dc bd 6f a5 90 3e
       0.5944565 0.31558362 -0.1078906 0.28251216
0000a0 3e 7e 69 bd 7f 0c e7 be 0d a3 9b 3e 29 9d 2a be
       -0.05700516 -0.4512672 0.30397835 -0.16661514
0000b0 34 a9 91 3d 44 48 ac 3e 2f 1a 23 3f 9a 37 74 be
       0.07112351 0.33648884 0.6371183 -0.23849335
0000c0 b8 90 9e 3e a1 a1 aa 3e 4e b6 f8 bd b3 c3 96 bd
       0.30969787 0.33326438 -0.12144147 -0.073615454
0000d0 87 df 85 3e 03 9c b7 3d 80 eb 40 bf a9 3c dd 3e
       0.261471 0.08965304 -0.75359344 0.43210343
0000e0 35 87 65 be 0a 48 26 3e 07 84 73 3c ae 44 bf bc
       -0.22414859 0.16238418 0.014863021 -0.023348179
0000f0 2f f7 a3 3e 26 7d 51 be 39 28 05 be 27 1f 71 3e
       0.32024524 -0.20457897 -0.13003625 0.2354704
000100 7e 23 4f be 0d 7c 2c 3e e2 ea 46 be 8c fe 91 3e
       -0.20228383 0.16844197 -0.19425538 0.28514516
000110 4d ee 40 3d 12 e3 4e 3f 41 b5 a8 3d 7f 0f e6 3d
       0.04710226 0.8081523 0.082376964 0.112334244
000120 6a 45 92 bd 93 87 16 bc 7b 71 cf 3d 6e b3 97 3e
       -0.07142146 -0.009187597 0.101290666 0.2962908
000130 f7 b4 59 3f 78 47 02 3f 16 36 15 bf 3e 17 1b bf
       0.85041755 0.508903 -0.58285654 -0.6058234
000140 34 17 18 3f 5e d3 0b 3f 98 dc 81 3e 75 8f 10 bf
       0.59410405 0.54619396 0.25363612 -0.564689
000150 ba 1f 10 3e 8b 96 be be 3f e1 35 be 1c 89 e1 3d
       0.14074603 -0.3722423 -0.17761706 0.1101248
000160 2b 2b 67 bd 03 8e 1c bf 55 56 78 bc 26 9c b4 be
       -0.056437653 -0.6115419 -0.015157302 -0.35275382
000170 46 2e 96 3e 61 bd f8 3e de 4c 2b 3f 7a fa 13 bf
       0.2933218 0.48581985 0.66914165 -0.5780407
000180 0a d7 ba be f8 2d 09 3e 42 2a 9f be d7 7b 3c 3e
       -0.36492187 0.13396442 -0.31086928 0.18406616
000190 b6 1a 5c 3f 13 21 5d be 7e d9 a1 be b5 b6 2a bf
       0.8597826 -0.21594648 -0.31611246 -0.6668504
0001a0 d4 ea 1d be 9a a2 4c 3d a6 9b 7d 3e 10 24 48 bd
       -0.15421611 0.049959756 0.24766406 -0.048862517
0001b0 ca d9 20 bf a9 c7 fc 3e c0 ff 05 3c 94 a8 01 be
       -0.6283232 0.4937108 0.008178651 -0.12661964
0001c0 39 71 a7 be 41 a0 0c bc b1 7b 13 3e e2 b4 ab 3d
       -0.3270357 -0.008583129 0.14402653 0.0838411
0001d0 0c 07 10 3f de 75 15 bf 0f b9 a9 3c aa 3c 8a 3e
       0.5626075 -0.58382976 0.020718126 0.26999408
0001e0 52 08 5e 3e ea 89 21 be 49 cd e4 bd ce 7a e5 3e
       0.21682861 -0.15775266 -0.111719675 0.44820255
0001f0 ec d0 1e 3c 36 ee 0c be bd e4 00 bf e5 7b c2 bd
       0.009693366 -0.13762745 -0.50349027 -0.09496287
000200 6d a6 96 3c ac b2 80 be 39 9f 8c 3e cc 71 a7 3d
       0.018389905 -0.25136316 0.27465227 0.08176002
000210 8c 06 29 3f 21 06 76 3e f9 e2 52 bd a6 4f 0d 3d
       0.66025615 0.24025775 -0.05148599 0.034499787
000220 36 19 3d bc d9 3b 0f bd 5e dc 4a 3d e1 4e 9f 3d
       -0.011541655 -0.034969185 0.049526565 0.07778717
000230 ab a6 37 bd 9d c9 f6 bd ac fc c2 3e bc 16 fb 3e
       -0.04483668 -0.120501734 0.38083398 0.49040782
000240 9d 30 8c be 27 d0 53 3e d9 fe 02 3d 86 7e f4 be
       -0.2738084 0.20684873 0.031981323 -0.4775278
000250 c8 3a ce bc 15 c4 1e be 90 dc ba 3e e2 3c 7c be
       -0.025174513 -0.15504487 0.364964 -0.246326
000260 e2 31 cf 3e 8a 18 22 3e d7 9b 94 3e f4 fb 0f bf
       0.40467745 0.15829673 0.29025146 -0.56243825
000270 6d 63 31 bf c5 75 96 3d ac 1b 73 3c c8 80 09 bb
       -0.69292337 0.073466815 0.01483814 -0.00209813
000280 6f 45 6c 3e fc 0c 2e bf b7 b8 a8 be 63 22 1b be
       0.23073362 -0.6798856 -0.32953426 -0.15149836
000290 44 10 d8 3d f4 44 de bc 35 54 53 3c 98 ae 28 3f
       0.105499774 -0.027132489 0.0128984945 0.6589141
0002a0 bf 68 a6 be da 03 ca bd 67 eb 8e 3e 2f 89 a0 be
       -0.3250179 -0.09864016 0.27913973 -0.31354663
0002b0 2a 83 06 bf f8 5e 0f bf 4a b8 a9 3e a6 22 7b 3f
       -0.5254389 -0.56004286 0.33148414 0.98099744
0002c0 e4 7e 9c 3d 70 0e 6a bd e1 5e 9f be 6c c2 f5 3d
       0.0764139 -0.057142675 -0.31127074 0.11999974
0002d0 b7 c0 fb 3d 93 24 68 3d 83 38 10 be f6 d4 02 3f
       0.12292617 0.056675505 -0.14084058 0.511062
0002e0 df 9c 90 3e ed 8e f4 bd 6e 68 20 bf 8d 18 98 be
       0.28244683 -0.119413234 -0.6265935 -0.2970623
0002f0 96 ba 93 bc 18 12 61 be 84 f8 f4 3c e6 a5 a2 bd
       -0.018033307 -0.21979558 0.029903658 -0.07941799
000300 b9 a5 9a 3d 22 64 c3 be 46 1d af bd 2b 45 1b 3e
       0.0755114 -0.38162333 -0.08550505 0.15163104
000310 39 1b c6 be 3f f6 76 3e 69 6e ae 3e b6 2c 53 be
       -0.38692644 0.24117373 0.3406861 -0.20622525
000320 5d 59 32 be 3c db 9b 3e 42 ef a9 3e be b6 bd 3d
       -0.17416902 0.304407 0.33190352 0.09263371
000330 1b c4 1e 3d f1 56 bb bd 21 d0 a3 3e 35 ed aa 3d
       0.03876124 -0.09147442 0.31994727 0.08346025
000340 f4 06 91 be 27 79 94 bd 93 03 38 3e 82 e5 dd 3e
       -0.28325617 -0.072496705 0.17970113 0.43339163
000350 28 d1 64 be 3b 3b 0a 3e 7b bc d7 3e 03 af a2 3e
       -0.22345412 0.13499157 0.42135987 0.31774148
000360 1b f3 4e 3f de 5b 3a bf 28 e2 fa 3c 24 ea 59 be
       0.808397 -0.7279643 0.030625418 -0.21280724
000370 57 31 ef 3e cc 41 67 be e5 a0 11 3f 2b a9 41 3e
       0.4671733 -0.22583693 0.5688613 0.18912189
000380 ca db 0e 3e 44 9c 4a 3b a1 66 f9 3d b0 18 8a be
       0.1395103 0.0030915895 0.12177778 -0.2697196
000390 9b bd ce be aa 2a c2 be b4 f1 f6 bd e3 86 3a 3e
       -0.40379032 -0.37923175 -0.1205782 0.18215518
0003a0 d0 5c 1d 3e 94 e9 3c be a6 09 27 bf 9e 92 66 be
       0.15367436 -0.18448478 -0.652491 -0.22516868
0003b0 a8 29 9c 3e 3b 06 8e be 46 22 e5 be 56 f2 4d be
       0.3050053 -0.27739128 -0.4475271 -0.20111975
0003c0 23 ed 0d 3e 00 ba 8e be 5f 71 70 be 18 c5 d8 3d
       0.13859992 -0.27876282 -0.23480748 0.10584468
0003d0 9b 51 70 be 1d 74 da 3e 19 1e 22 bc 5f 1f 4e be
       -0.2346863 0.42666712 -0.009894871 -0.20129155
0003e0 c6 1b 4e bf d3 91 1e 3f 27 28 9d be 0b eb 12 3e
       -0.8051113 0.6194126 -0.30694696 0.14347474
0003f0 23 2d 4d be 75 38 7e bd 86 39 41 bc c6 c3 c2 3e
       -0.2003675 -0.06206556 -0.0117935 0.38039988

model.blocks.0.mlp.2.bias f4 [8]
000000 ec 67 3f 3e 8e 39 4b be ac 04 a6 bd 5e 21 a0 be
       0.18691987 -0.19846174 -0.0810636 -0.31275457
000010 a4 71 73 be d5 9c f3 3d c4 20 08 3e 6d 95 6a bb
       -0.23773819 0.11895148 0.13293749 -0.003579463

model.blocks.1.norm1.weight f4 [8]
000000 dc 31 98 3f aa b2 b4 3f db f3 9b 3f a7 54 af 3f
       1.1890216 1.4117024 1.2183794 1.3697709
000010 49 e3 de 3f e4 a9 08 40 d9 97 a3 3f e6 81 a8 3f
       1.7413112 2.1353693 1.2780715 1.3164642

model.blocks.1.norm1.bias f4 [8]
000000 1e 1e ba 3d 3d 13 34 bc b2 14 b7 3e 6a bc 0c be
       0.09087776 -0.010990915 0.35757977 -0.1374375
000010 8c 15 1f be 77 25 fa 3c ce 9b 88 be 77 32 d1 be
       -0.15535563 0.030535443 -0.2668137 -0.40858814

model.blocks.1.mhsa.q_mappings.0.weight f4 [4, 4]
000000 db 4d 2e be 0e 87 c2 be 2a 88 7c bd 86 56 cd 3d
       -0.17021887 -0.37993664 -0.061653294 0.10026269
000010 d2 74 ba 3d fd ff 8a be a6 40 2d 3e 1b 62 0c 3f
       0.09104313 -0.2714843 0.16919193 0.548372
000020 ea d2 6a 3f 01 44 8e be 2e 12 2c 3f 26 ab 60 be
       0.9172808 -0.27786258 0.6721524 -0.21940288
000030 39 4f fc 3e e0 d7 ad bd 1b f0 b4 be 78 05 05 3e
       0.49279192 -0.084884405 -0.35339436 0.12990367

model.blocks.1.mhsa.q_mappings.0.bias f4 [4]
000000 d2 32 ed be 6a a5 4c 3e 96 4d 55 3f c2 b8 b3 be
       -0.46327835 0.19984975 0.8332151 -0.35101897

model.blocks.1.mhsa.q_mappings.1.weight f4 [4, 4]
000000 6d 89 fa bc f7 71 7d 3e b5 1c 0c 3e 17 9f 80 3e
       -0.030583108 0.24750505 0.13682826 0.25121376
000010 62 e3 b4 3e 9b de c4 3e 6f 98 18 3e 74 7c 5d 3d
       0.3532973 0.38451084 0.14901899 0.054073766
000020 e7 c8 19 3f a8 e9 9d be af 9b b9 be 2d d4 96 3d
       0.6007218 -0.30842328 -0.3625159 0.07364688
000030 a7 b4 c2 be 43 55 58 b9 66 98 d6 be 6c 37 be bd
       -0.38028452 -0.00020631128 -0.41913146 -0.09287915

model.blocks.1.mhsa.q_mappings.1.bias f4 [4]
000000 9e 7c bd be e5 9d 6c bf 7e 08 b6 3e 36 6c 0d 3f
       -0.37009138 -0.9242843 0.35553354 0.5524324

model.blocks.1.mhsa.k_mappings.0.weight f4 [4, 4]
000000 49 a6 ae 3e 82 7d 97 3d 4b 1b 2c 3f 89 bf f0 3d
       0.3411124 0.073969856 0.67229146 0.117552824
000010 1b d0 a1 bd f5 56 3e 3e 7b 57 98 3e 0c ab 18 bf
       -0.07901021 0.18587859 0.29754242 -0.59635997
000020 2a a5 21 be a8 d8 22 3d 7b fd 60 bf 9a b0 33 bf
       -0.15785661 0.0397574 -0.8788678 -0.7019135
000030 e1 52 2a 3f 74 26 be bc af 99 36 3f 3f 09 f1 be
       0.66532713 -0.023211695 0.7132825 -0.47077367

model.blocks.1.mhsa.k_mappings.0.bias f4 [4]
000000 4b e1 51 3e 9a c7 b9 3e cf a5 79 be 4f 0f 9a bd
       0.20496099 0.36285096 -0.24379657 -0.07522451

model.blocks.1.mhsa.k_mappings.1.weight f4 [4, 4]
000000 c9 85 6a 3e ca f5 ae be b8 13 b4 bc 1d 90 a2 be
       0.22902597 -0.34171897 -0.021982059 -0.31750575
000010 57 67 00 3e ea cf 65 3d 7b 1e 59 3f 6e 5a 5a bf
       0.12539421 0.056106485 0.84812135 -0.85294235
000020 75 dc 53 3d d6 e3 97 3e a8 f9 8f be 86 a1 db be
       0.051723916 0.29666013 -0.2812016 -0.4289667
000030 b7 af b2 bd f0 5b b2 bd 09 d7 4b bf b1 ba 2d 3f
       -0.08724921 -0.08708942 -0.7962499 0.67862993

model.blocks.1.mhsa.k_mappings.1.bias f4 [4]
000000 41 9c e1 be 51 a5 93 bd ce c0 bc 3e 9a 7f b7 bd
       -0.44064525 -0.07209266 0.36865848 -0.08959885

model.blocks.1.mhsa.v_mappings.0.weight f4 [4, 4]
000000 43 d8 51 be 27 07 de 3f 7e f9 67 be 89 b5 f4 bc
       -0.20492654 1.7345933 -0.22653767 -0.029871719
000010 42 36 3b bf 2d c7 82 3f 96 fe 94 3e e9 29 1b be
       -0.73129666 1.0217034 0.29100484 -0.15152706
000020 f9 34 24 bf 59 03 02 bf 3e 5c 80 3e 44 99 7d 3f
       -0.6414333 -0.5078636 0.25070375 0.9906199
000030 86 45 c2 3e 2a 9a f2 bf ad b8 a8 be cd 83 c4 3c
       0.37943667 -1.8953297 -0.32953396 0.023988629

model.blocks.1.mhsa.v_mappings.0.bias f4 [4]
000000 f1 ea a4 bd 18 08 3f 3e 4b 66 e4 3d c5 92 0f 3e
       -0.08052624 0.18655431 0.11152323 0.14020832

model.blocks.1.mhsa.v_mappings.1.weight f4 [4, 4]
000000 0a c7 9c bf 4a c2 09 bf 71 c7 af 3d 0b 19 ad bf
       -1.2248242 -0.53812087 0.08582962 -1.3523268
000010 25 b3 ec 3f f3 39 74 3f 10 b5 30 be 13 06 32 3f
       1.849217 0.95400923 -0.1725657 0.6954052
000020 12 95 b4 be 96 f0 09 3e e2 4a 6a 3f 37 f0 6f 3f
       -0.35269982 0.13470683 0.9152051 0.93725914
000030 5d 2b 92 bf 6d 53 02 40 3f a4 4c bd 32 9f d9 3e
       -1.1419483 2.036342 -0.049961325 0.4250427

model.blocks.1.mhsa.v_mappings.1.bias f4 [4]
000000 7e c1 b0 3e 9c 4b c7 3e 03 9f f4 bb 5c df 8e 3e
       0.34522623 0.38924873 -0.0074652447 0.27904785

model.blocks.1.norm2.weight f4 [8]
000000 a7 06 e1 3f 1f f1 b5 3f 09 57 ae 3f e7 d4 c5 3f
       1.7580155 1.4214209 1.3620311 1.5455598
000010 85 0f b4 3f 0f 33 b9 3f 88 c9 f6 3f 01 2f c2 3f
       1.4067236 1.4468707 1.9280252 1.5170594

model.blocks.1.norm2.bias f4 [8]
000000 97 db 67 bc 8a cb fd bd 10 bf 73 3d 93 46 27 be
       -0.014151475 -0.123923376 0.059508383 -0.16335516
000010 ba 97 84 3e 65 d7 c8 bd d1 e7 db be 25 7a 04 3e
       0.25897008 -0.09806708 -0.429503 0.1293722

model.blocks.1.mlp.0.weight f4 [32, 8]
000000 f5 04 db be 8e dd c4 3e ea 40 b3 bd 03 a0 3a bf
       -0.4277722 0.38450283 -0.08752616 -0.7290041
000010 31 d9 66 bf 03 0b a2 3e 67 43 52 3d c0 f8 f5 3e
       -0.9017516 0.31649026 0.05133381 0.48041344
000020 bf a9 b3 be 1e fc 26 3f 91 94 68 bf 56 c8 91 3e
       -0.35090443 0.6522845 -0.90851694 0.28473157
000030 a4 05 92 be e7 38 34 be 07 28 96 3e bb 79 05 3f
       -0.28519928 -0.17599832 0.29327413 0.5213887
000040 76 63 1d bf 95 c7 29 be e1 3c d5 be ff 8c 9e 3e
       -0.6147989 -0.16580041 -0.4164801 0.30966946
000050 3d 25 3c 3e 73 2c ce 3d 30 f4 ce bd 07 d1 07 3e
       0.1837358 0.10067072 -0.10105169 0.13263331
000060 44 ba 88 3f 33 d5 01 be 69 91 34 3f 53 6a 4c be
       1.0681844 -0.12678985 0.7053438 -0.19962434
000070 1f 29 3b bf 21 1a 89 bd 6b e8 02 3e 15 59 e0 be
       -0.7310962 -0.06694437 0.12783973 -0.43817964
000080 7d 27 6f 3f fc da f4 3d 57 3d 25 be 05 7b a1 be
       0.9341963 0.119558305 -0.1613668 -0.3153917
000090 e8 21 c5 bc 3f 36 bc be a0 93 c4 be a4 26 5f be
       -0.02406402 -0.36760136 -0.3839388 -0.21792084
0000a0 31 e3 02 3f 39 a4 d0 bd 33 9a b9 be 77 65 c5 3e
       0.51127917 -0.10187573 -0.36250457 0.38553974
0000b0 74 fa 2d 3f b4 b4 0c 3e 30 f3 09 bf f1 d5 59 3f
       0.67960286 0.13740808 -0.538867 0.85092074
0000c0 00 3f 78 3f c9 09 a7 bb 2a a6 89 be 6a d6 f2 be
       0.9697113 -0.005097602 -0.26884586 -0.4742921
0000d0 c7 ba fa 3e 07 e7 9a be 14 2f 36 bf c2 91 85 3d
       0.48970625 -0.30254385 -0.71165586 0.06521942
0000e0 44 33 1c bf ac d8 77 3e c7 10 b8 3e 50 1d 5a 3d
       -0.61015725 0.24203748 0.359503 0.05325061
0000f0 47 5c 30 3f 1c c9 34 bf 1a 8c e8 be cc 64 38 bf
       0.68890804 -0.7061937 -0.4541939 -0.72028804
000100 13 39 3e 3f 4b 0d 01 bf cf 97 3d be 88 84 4c be
       0.7430584 -0.5041091 -0.18514942 -0.19972432
000110 99 78 2e 3e c9 bc 86 be ff ce b9 3e 83 29 52 be
       0.17038192 -0.26315907 0.36290738 -0.20523648
000120 70 48 ea bd 29 b5 09 3f 23 35 97 3e 7c ab 08 ba
       -0.114395976 0.53792053 0.29532728 -0.00052135414
000130 24 1c ca 3d 9a 1e bd be 86 d9 92 bf ee 67 1f 3f
       0.09868649 -0.3693741 -1.1472633 0.6226796
000140 3d a1 05 bf 51 27 cf 3e b6 b7 28 be 3b dc 4e bf
       -0.52199155 0.40459684 -0.1647633 -0.80804795
000150 45 28 fa be ed 7a 1f 3e 14 1f 2a 3f f1 29 5e 3e
       -0.48858848 0.15574236 0.6645367 0.21695687
000160 2b 25 34 bf 61 0c 97 3e 54 a1 e8 3d a4 74 f4 bd
       -0.70369214 0.29501632 0.11358896 -0.1193631
000170 db 22 5d 3f a5 f9 c0 be 5e c7 14 3e 60 a5 2b bf
       0.8638131 -0.37690464 0.14529178 -0.6704922
000180 27 21 a7 3e 2d ce b0 3e 2d 55 92 be a0 08 bf 3e
       0.3264248 0.345323 -0.2858061 0.37311268
000190 bc 56 be be c1 0d 92 3c cb 03 42 3f cb 86 54 3d
       -0.37175548 0.017828824 0.7578704 0.05188636
0001a0 b2 26 32 be 20 ee b2 3e 7b 5d 57 3d cd 81 b0 bd
       -0.17397574 0.349473 0.052579384 -0.086185075
0001b0 86 4f 80 bf b0 39 42 be 0b 1e a9 3f dd 1e b6 3e
       -1.0024269 -0.18967319 1.3212293 0.35570422
0001c0 47 f1 4f 3f d4 80 cf 3d eb 46 1f 3f be e2 ea be
       0.81227535 0.10131994 0.6221759 -0.45876116
0001d0 8b d7 45 bc 8a 93 ec 3d 1b 9d 1a bf 03 c7 1a 3e
       -0.012075315 0.11551578 -0.60395974 0.1511498
0001e0 14 7d 4b 3f f4 27 21 bd 35 73 0d 3f b7 94 05 3f
       0.7948773 -0.039344743 0.55253917 0.52180046
0001f0 47 ac 20 bf d9 54 b5 3e 3c 58 27 bf 9c 0e 2c be
       -0.62762874 0.35416296 -0.6536901 -0.16802448
000200 c3 b0 64 bf 57 90 0f bf fb 16 3d be 82 cc 2e 3f
       -0.89332217 -0.5607962 -0.18465798 0.68280804
000210 07 df 89 bd d1 86 84 3c 32 6c 13 3f b2 45 17 3f
       -0.06731992 0.016177567 0.5758697 0.5909072
000220 3e 73 d7 3d 8f ff 32 bf 31 86 14 bf b0 a3 4f 3e
       0.105200276 -0.699212 -0.5801726 0.20277286
000230 65 de 67 3e 83 2d 71 3d 61 0e 83 bf 15 d4 a9 3e
       0.2264343 0.058881294 -1.0238763 0.33169618
000240 e0 57 74 3e 9c 2e 9b 3c 92 fe 37 be c7 c2 05 bf
       0.23861647 0.018943124 -0.17968205 -0.5225033
000250 a4 f4 15 3e 00 4f 85 be 77 e0 32 bf 87 d0 21 3f
       0.14644104 -0.26036835 -0.69873756 0.6320881
000260 2d f4 33 3f 54 0a 59 be 48 4b 23 3f 21 05 7a 3e
       0.7029446 -0.21195346 0.63786745 0.24416019
000270 f1 c6 21 be 61 a3 7d be 03 0a 43 3f 3f 85 6b be
       -0.15798546 -0.24769355 0.7618715 -0.23000048
000280 57 3b df 3e 95 d6 89 bd e0 4f de 3b 2f 54 c9 3e
       0.4359996 -0.067303814 0.006784424 0.3932204
000290 76 37 a1 be f8 c7 06 3e 5a cf fa 3e 5f f0 85 bf
       -0.31487626 0.1316222 0.48986322 -1.046398
0002a0 5f 67 31 bc 5c 4d e3 3d be cf 9f be 4a e7 11 3f
       -0.010827868 0.110987395 -0.31213182 0.56993544
0002b0 8b 10 9e be 30 10 88 3e 45 02 ac 3f 39 35 26 bf
       -0.30871996 0.2657485 1.3438193 -0.6492496
0002c0 12 26 2b bf 0b 31 f0 be 64 27 2b bf 38 81 40 3f
       -0.66854966 -0.46912417 -0.6685698 0.7519717
0002d0 3c 3b 37 3e 6f 38 0d 3f 19 34 b2 3c ca 4e 98 3e
       0.1789369 0.55164236 0.021753358 0.2974761
0002e0 82 bd 36 3f 2e 7b 0b 3d eb 96 b7 be d4 55 f2 be
       0.71382916 0.03405302 -0.3585733 -0.47331107
0002f0 4b a0 dc be 3b bb b6 be 6f 60 18 3f 8e 53 50 bc
       -0.43091044 -0.3568972 0.59522146 -0.0127152335
000300 0c 3c 96 bf d3 fc 07 bf 55 51 09 bf 41 68 ae 3e
       -1.1737075 -0.53120154 -0.5363973 0.34063914
000310 e9 2f b7 3d fb 62 83 3f ae c1 ab 3e 7a 99 30 3f
       0.08944685 1.0264581 0.33546203 0.68984187
000320 fa f9 a0 3c d4 08 c5 be ba de 1d 3e bc 7b 6f 3f
       0.019650448 -0.38483298 0.15416995 0.9354818
000330 0c 3c 3d 3d 76 d6 9c be 9d 7f bb 3f 2e 00 0b be
       0.046199843 -0.3063237 1.464832 -0.13574287
000340 e0 04 2d be d2 58 a8 be 81 8b 5a 3f 6b e4 64 bf
       -0.16896391 -0.32880265 0.85369116 -0.8941104
000350 5d 85 07 3e 68 4f 9f bf aa 33 85 3e a4 fc 73 3f
       0.13234468 -1.2446108 0.2601598 0.95307374
000360 e2 34 6c be d0 40 87 bf 43 2f ae 3e 18 f7 a3 3c
       -0.23067048 -1.0566654 0.34020433 0.020015284
000370 7b b6 8f be 84 27 11 3f 14 15 6e 3f 35 72 31 be
       -0.2806891 0.5670092 0.9300091 -0.17328723
000380 b1 17 7e bd 55 78 03 3e 4b f1 ef 3e 09 c5 0c be
       -0.062034313 0.12838872 0.4686378 -0.13747038
000390 ec 91 40 bf 5b 2c ee 3e 51 39 45 bf eb 74 ae bd
       -0.7522266 0.46518216 -0.7704058 -0.08518394
0003a0 aa 17 b5 be 51 d4 4d bf bf 7b 34 bf a5 f6 04 3f
       -0.35369617 -0.80402094 -0.7050132 0.5193885
0003b0 60 47 d4 3c 4f 59 e3 3e 32 56 ca bd f9 a0 5d 3e
       0.02591294 0.44404075 -0.09879722 0.21643437
0003c0 a9 0d 08 3d e7 3a 6a bf 81 ea 3d 3f 7d 42 11 be
       0.033216152 -0.9149613 0.7418595 -0.1418552
0003d0 de 19 bd be 66 2a 82 3f 55 10 8b 3e d8 3c f7 3e
       -0.36933798 1.0169189 0.27160898 0.48288608
0003e0 27 8c 3f bd 10 c3 7f 3f 0a 4f 06 bf 74 ee c3 bd
       -0.04676452 0.99907017 -0.52464354 -0.09566966
0003f0 dd c9 fc be 1d 57 31 3e 5c ca 38 3e f6 b9 94 be
       -0.4937276 0.17318387 0.18045944 -0.29048127

model.blocks.1.mlp.0.bias f4 [32]
000000 4f b7 50 3e 01 48 8a be 05 7e 86 3e f3 3c 8e 3e
       0.20382427 -0.2700806 0.2626802 0.27780876
000010 c1 68 18 3d ac dc 7c 3e 3a 5e dc 3e 08 cc 2e 3d
       0.037209276 0.24693555 0.4304064 0.042675048
000020 aa ac 92 3e 05 92 ba 3e 8c 1c 28 3d 67 82 45 3e
       0.28647357 0.3643953 0.04104285 0.19288026
000030 d3 54 48 bd 3b 19 29 bd af cc 4c 3e ad ea 8c 3e
       -0.04890902 -0.041283827 0.19999956 0.27522793
000040 0b cf cd bd f9 36 05 3c c8 d4 c2 3e 08 4e 7e bd
       -0.10049256 0.008130782 0.38052964 -0.062086135
000050 d7 b0 85 3c 39 96 55 be 6a f3 ba 3c 1a d9 81 3e
       0.016319675 -0.20858087 0.022821147 0.25360948
000060 b0 66 59 be 26 8e f2 3b 69 d4 09 be 67 17 3e be
       -0.21230578 0.0074021993 -0.13459934 -0.18563615
000070 07 bd 39 3f 81 3a 6d be 1f 6a b6 3e d7 88 1f 3e
       0.7255406 -0.23166849 0.3562784 0.15579544

model.blocks.1.mlp.2.weight f4 [8, 32]
000000 76 87 54 3f 9c 51 dc 3e 3e 30 51 3e 36 24 aa be
       0.83019197 0.43031013 0.20428559 -0.33230752
000010 e1 21 03 be be 64 b0 3d 76 a1 11 be 02 76 a3 be
       -0.12805893 0.08612965 -0.14221749 -0.3192597
000020 a4 1f fc be c0 31 05 3f ea 99 c8 3e 3a 69 1d bf
       -0.4924289 0.5202904 0.39179927 -0.6148869
000030 cb 1a 25 bd 73 87 a5 3e f4 c7 36 3e c8 25 a5 bd
       -0.040308755 0.32329902 0.17849714 -0.08063847
000040 48 d4 af be 3f 75 03 3e 1e fc 77 3e 32 ed 04 bf
       -0.34341645 0.12837695 0.24217269 -0.5192443
000050 9d 00 2e bf 4f 12 20 bf 61 3a 11 3e d7 27 12 3e
       -0.67969686 -0.62527937 0.14182426 0.1427301
000060 2d 1f 23 bf d2 af 1f bf be c3 4b 3f b3 b9 91 3c
       -0.63719445 -0.62377656 0.79595554 0.017788744
000070 48 69 73 3e 9d d0 06 be a6 42 5f 3e 79 aa 3e 3d
       0.2377063 -0.13165517 0.21802768 0.046549294
000080 21 75 01 3f 26 b8 88 3f cb 89 a2 3d 83 c0 d9 3d
       0.5056935 1.0681198 0.07936438 0.10632422
000090 d0 59 89 3d 27 df d6 3c d8 26 e7 be b4 72 9f 3c
       0.067065835 0.026229454 -0.45146823 0.019463874
0000a0 d9 5f 43 bf 18 0e 03 3d 4e 84 56 3e f3 b2 06 3e
       -0.76318127 0.031995863 0.20948908 0.13154201
0000b0 7e de bf 3d 6d 95 aa 3e 7e 03 f1 bc 43 0d 14 bd
       0.09368609 0.33317128 -0.02942061 -0.03614546
0000c0 ed 93 bc be 9b 2a 77 3e a0 9a 89 bd 92 b9 a4 be
       -0.36831608 0.24137346 -0.067189455 -0.3217283
0000d0 40 85 ce 3d f4 59 3e 3e 7b 06 86 bb 99 45 aa bd
       0.10084009 0.18589002 -0.004090128 -0.08314056
0000e0 c7 56 0d bf 7b 4c 2f bf 7b 20 3f be 33 42 3f bf
       -0.55210537 -0.68476075 -0.18664734 -0.74710387
0000f0 82 6c c5 3e 61 ab d8 be 2c 5b 1e be 95 99 3d 3f
       0.38559347 -0.42318252 -0.15464467 0.7406247
000100 e1 2b 6d bd 34 66 68 bf 92 62 86 3e e5 3d 18 bf
       -0.057903174 -0.9078095 0.26247078 -0.59469444
000110 2a b3 1d bf b4 14 86 be 38 a8 06 bf 4a 5b fa 3d
       -0.6160151 -0.2618767 -0.5260043 0.12224443
000120 d1 45 31 bf 54 a2 a7 3e 19 bf dd be 3e 23 8a 3e
       -0.69247156 0.32741034 -0.43309858 0.26980013
000130 7c 04 ea bd 88 1e ed 3e 1e 03 3c bf e5 f0 21 bf
       -0.114266366 0.46312356 -0.73442256 -0.632582
000140 60 24 27 3f be bc 86 3c 35 e1 8a 3b ad a1 71 be
       0.6528988 0.016447421 0.0042382726 -0.2359683
000150 0a ca b3 be d2 3a 3b 3f 37 f2 f0 3e 4d c2 17 bf
       -0.3511508 0.7313663 0.47059795 -0.59280854
000160 7d 11 f6 3e 93 3b 90 3e eb a1 33 3f 14 b3 b4 3e
       0.48060217 0.28170452 0.7016894 0.35292876
000170 ac f7 8a be c4 02 7b 3e 19 f5 ad 3e b2 e1 36 bf
       -0.27142084 0.24512774 0.33976057 -0.71438134
000180 21 65 51 3e 04 45 17 3f f4 3e d9 3d ac 62 26 bf
       0.20448734 0.59089684 0.106077105 -0.6499431
000190 30 57 cf be 22 f7 9b 3e 1f cf 35 3e fd 0e 9f bd
       -0.40496206 0.30461985 0.17754792 -0.07766531
0001a0 07 21 39 be cf 1e e7 3c aa 23 83 be 05 e1 7c 3d
       -0.18079005 0.028212933 -0.25613147 0.061738033
0001b0 80 d2 47 3d 19 30 e6 bd 5e 03 5a be 12 97 54 bc
       0.048784733 -0.11239643 -0.21290347 -0.012975471
0001c0 78 94 92 3e 4a 70 88 3e c7 a1 6d 3e 06 31 3e bf
       0.28628898 0.2664817 0.23206244 -0.74293554
0001d0 73 b5 36 3e 7b 94 5b 3e 77 34 0e 3f 93 57 6f be
       0.17842655 0.2144336 0.55548805 -0.2337325
0001e0 b1 e2 c4 bd 13 8f d1 be 2b 36 4e bf a5 63 21 bf
       -0.096135505 -0.4092947 -0.80551404 -0.6304267
0001f0 4e 39 02 3d b6 f3 83 3e a6 7d 11 3e 2f 23 2f 3f
       0.03179293 0.25771874 0.14208087 0.6841306
000200 f7 a8 5a bf a1 c8 3f bd e6 7a 5a 3e 35 06 01 bf
       -0.8541407 -0.046822194 0.21335945 -0.50400096
000210 70 4c ed bd ea 41 94 3e b7 98 02 3e 54 2b 0d 3f
       -0.11586845 0.28956538 0.12753569 0.5514424
000220 a1 31 87 3e 37 e3 83 3c ec de 40 bf 75 92 59 3f
       0.2640505 0.016099555 -0.7534015 0.849891
000230 40 ac d5 be 1f 60 49 bf 0e a8 8f be ed ce 27 bf
       -0.4173298 -0.78662294 -0.28057903 -0.6555012
000240 d3 7d cf 3e 4e d9 6a 3e 86 01 a6 3e 65 41 41 be
       0.40525684 0.22934458 0.32423037 -0.18872602
000250 d9 25 2b be 70 40 8e be f2 fc 22 3f b2 48 91 be
       -0.16713656 -0.27783537 0.63667214 -0.28375775
000260 4c 47 2e 3f 5c 3f 86 be 41 73 20 3f 7a 2a 40 bf
       0.6807754 -0.26220214 0.62675864 -0.75064814
000270 28 74 d0 be 07 96 e5 3e 57 dc d5 be b9 8b 3f bb
       -0.4071362 0.44841024 -0.41769668 -0.0029227568
000280 8d 29 dc 3e 6f 4d c8 3c 19 58 df 3d cd 1b 97 be
       0.4300045 0.024450986 0.10905475 -0.29513398
000290 b5 e7 02 bf b3 82 aa 3d b8 9f 1c bf 54 01 f9 be
       -0.51134807 0.0832571 -0.6118121 -0.48633826
0002a0 b1 be d9 bd 58 b2 f7 be 85 0f 1d 3e ac 1b 89 be
       -0.106320746 -0.48378253 0.15337951 -0.26778924
0002b0 c2 17 5c 3e 5a 82 ee 3e 0c a6 06 bf 89 25 95 3e
       0.21493438 0.46583825 -0.5259712 0.291302
0002c0 e4 3b 39 3f af b1 1e 3f ea b5 9f be 5e 2f 47 be
       0.7235701 0.61989874 -0.31193477 -0.19451663
0002d0 df 01 a9 3e 89 c5 52 3f da b6 77 3f 66 25 a4 bd
       0.3300924 0.82332665 0.96763384 -0.08014946
0002e0 43 60 3d bd bb 09 0d 3f c4 47 50 bf ef 4b bd be
       -0.04623438 0.5509297 -0.81359506 -0.36971995
0002f0 0e b1 ed 3e 7f 27 69 3f 01 ac 06 3f 1f 16 fa 3e
       0.46424145 0.9107589 0.5260621 0.48845002
000300 20 48 3d be a9 42 ad 3e 2d 76 21 3e 67 3a fe 3d
       -0.18484545 0.3383992 0.15767737 0.12413483
000310 c7 a3 17 3e d4 fe 97 be d1 a6 8e be c2 c1 41 bf
       0.1480857 -0.29686606 -0.27861646 -0.75686276
000320 62 39 33 3d fa e2 11 bf 3a c7 c3 3e ef 07 cd be
       0.043755896 -0.56986964 0.38237935 -0.40045115
000330 7b 47 23 3f 59 11 36 3f 61 bf 57 be 0b 68 8d be
       0.63780946 0.7112022 -0.21069099 -0.2761844
000340 98 66 d3 3d c6 a8 30 bf de 6b bb be 84 9f b6 3e
       0.103223026 -0.6900753 -0.36605734 0.35668576
000350 ec 40 97 3e 30 09 6e 3f b4 49 95 be 75 e9 1c 3f
       0.2954172 0.9298277 -0.29157794 0.6129373
000360 d4 5a 5d 3f 6d f0 03 3f 04 e0 86 3f 15 7e 2a bf
       0.8646672 0.51538736 1.0537114 -0.66598636
000370 a8 d7 54 bf c3 3d 47 be d5 fa 9a bf 97 06 06 3e
       -0.83141565 -0.19457154 -1.2107798 0.13088451
000380 0e a5 9d 3e 67 30 a7 be 02 38 a0 be f4 8f ce bd
       0.3078999 -0.32654116 -0.3129273 -0.10086051
000390 ba 87 59 be 05 75 3d 3f 4f be 1b 3e 27 af 19 bf
       -0.21243182 0.7400668 0.15209316 -0.60032886
0003a0 a5 92 ae 3e 8f cf c0 3e a0 78 c3 3e 54 03 d1 be
       0.34096256 0.37658355 0.38177967 -0.40822852
0003b0 11 51 5b 3e d3 f2 3b 3f 2a af d5 3a ff c5 bc bd
       0.21417643 0.73417395 0.0016302813 -0.09217452
0003c0 99 b4 7b bf 2d cb 6b 3f 77 da 49 3f 13 ab 07 bd
       -0.98322445 0.92106897 0.78848976 -0.033122133
0003d0 fd 3f eb be 20 ca 35 3e eb ea 9b be 2d 26 61 3e
       -0.45947257 0.17752886 -0.30452666 0.21987219
0003e0 56 0b 72 bf 29 64 1e 3f 58 06 20 3d 15 0d 1f 3f
       -0.9454855 0.6187158 0.03906855 0.62129337
0003f0 24 b3 fa 3d 88 51 1a be 16 1d f9 3e 36 ad fc be
       0.122411996 -0.15070164 0.48655003 -0.493509

model.blocks.1.mlp.2.bias f4 [8]
000000 e3 05 99 be 61 7b 2a bc 6b 12 96 be 74 27 8d bd
       -0.29887304 -0.010405392 -0.29310927 -0.06892291
000010 ce e5 fd 3d 56 a1 e0 3d 3a ce 89 be 2d 42 d2 3b
       0.123973474 0.109682724 -0.2691515 0.00641658

model.mlp_head.0.weight f4 [10, 8]
000000 09 0d 42 3e 80 ed 13 3f 43 0a 4c bc d3 09 a7 bd
       0.18950285 0.5778427 -0.012453618 -0.08156171
000010 ad 17 92 3e 10 c4 28 bf fd b9 06 bf 49 40 8b bf
       0.28533688 -0.6592417 -0.52627546 -1.0878993
000020 df 7f a5 3e 7c a8 da be 71 c0 11 3f 06 03 0a 3f
       0.3232412 -0.42706668 0.5693427 0.53910863
000030 d8 4a 29 3f bc da 19 3f 93 2f ee be b1 26 f1 3e
       0.6612983 0.6009939 -0.4652067 0.47099832
000040 c2 a1 41 3f 7c 8b c2 bc d8 44 e3 3e de c0 3c bf
       0.7563745 -0.023748152 0.4438846 -0.7373179
000050 fc cd 18 bf 6e cd 5a be 48 2e 91 3e 93 29 de 3e
       -0.5968931 -0.21367428 0.28355622 0.43391094
000060 6d 22 31 3f 94 1d 1e 3f b3 7f f6 3d 2c 2c 73 3e
       0.69193155 0.6176388 0.120360754 0.23747319
000070 b0 cf dd be da 60 f2 3e 61 fa 13 3f e4 ed ee 3e
       -0.43322515 0.47339517 0.5780392 0.4666587
000080 71 84 a9 3e 7c 67 be be a0 3d 03 bf 19 94 c3 be
       0.33108857 -0.37188327 -0.5126591 -0.38198927
000090 99 a6 4c 3f 47 f5 23 bf 46 a3 25 3f e8 e2 30 3f
       0.7994171 -0.6404614 0.6470226 0.6909623
0000a0 25 32 2e bf ee 0c fe 3e 7e a1 84 3d 70 93 d2 bd
       -0.68045264 0.4961924 0.06476115 -0.10282028
0000b0 15 8d 01 3d ab 3e 00 3f a4 3a bd 3e 54 d5 3b bf
       0.031628687 0.50095624 0.36958802 -0.7337239
0000c0 ff 63 6d be 62 9f 99 be 46 4e 9d 3f 8d 5a 38 be
       -0.23182677 -0.30004412 1.2289512 -0.18003292
0000d0 d4 50 4b 3f 5e ab fb be 0e f3 4d 3d aa 02 c5 be
       0.7942021 -0.4915418 0.050280623 -0.38478595
0000e0 e3 2c df 3c 0c 7b 28 be 14 0e f3 be 0c ac cc bc
       0.027243083 -0.16453189 -0.47471678 -0.024984382
0000f0 98 67 21 bf 32 ce f8 3a d4 ee 74 bf 32 9f 48 3f
       -0.63048697 0.001898235 -0.9567692 0.7836791
000100 26 ba 57 bf 90 fc d3 be be bc e0 3e dc 7e b9 be
       -0.84268415 -0.41403627 0.43894 -0.362296
000110 fc 85 f5 be b1 0a 9f 3e 50 7a 4f 3f d7 27 31 3e
       -0.47953784 0.31062844 0.8104601 0.17300354
000120 74 b6 83 be 43 24 08 bf 79 31 81 bf dc 7c 80 be
       -0.25725138 -0.5318033 -1.0093223 -0.2509526
000130 2a 10 fa be dd 9a 2a be ee cb 16 3e f4 1f 69 be
       -0.48840457 -0.16660638 0.1472623 -0.22766095

model.mlp_head.0.bias f4 [10]
000000 45 d7 a7 be 94 f4 1e 3e 75 c4 0d 3e 66 e5 fe be
       -0.32781425 0.15522987 0.13844474 -0.49784392
000010 aa 5e a8 3e 44 8a a0 3d 21 5d b3 be 04 74 19 be
       0.32884723 0.07838872 -0.3503199 -0.14985663
000020 c3 bc 2f 3e 91 88 43 3e
       0.1716185 0.19095065
