vit/models/vit_model.pth (torch, 22065 bytes, 45 tensors)

class_token f4 [1, 8]
0	0x3e962121	0.2932215
1	0x3f1af40d	0.6052864
2	0x3f07f2d0	0.5310488
3	0x3f39eddb	0.72628564
4	0x3ef8def7	0.4860761
5	0x3e64cd8c	0.22344035
6	0x3f402958	0.75063086
7	0x3f3da610	0.74081516

linear_mapper.weight f4 [8, 16]
0	0x3d8a91f2	0.06766118
1	0xbe88df03	-0.26732644
2	0xbde4b9ea	-0.11168273
3	0x3e2a6617	0.16640507
4	0x3c02d85d	0.007986155
5	0xbd114557	-0.03546652
6	0xbe2abcaa	-0.16673532
7	0x3e3ef13f	0.18646716
8	0x3e5d53be	0.21613976
9	0xbdb71f40	-0.08941507
10	0xbe1f82b5	-0.15577205
11	0x3e6e984d	0.23300286
12	0x3ddd5bcc	0.108085245
13	0xbeaabad8	-0.33345675
14	0xbe49fe78	-0.19725978
15	0xbe7c825c	-0.24659103
16	0x3df22fd5	0.118255295
17	0x3e37eec1	0.17962171
18	0x3e45e55d	0.19325776
19	0x3eaca745	0.33721367
20	0xbe2d8d55	-0.16948445
21	0xbdacc0a7	-0.08435183
22	0x3d85b361	0.065283544
23	0x3e498ec0	0.19683361
24	0x3a76bad5	0.00094119954
25	0x3e04240e	0.12904379
26	0x3eb46a51	0.35237363
27	0x3f0ba4e1	0.5454846
28	0x3e40aaf1	0.18815209
29	0xbe520e48	-0.2051326
30	0xbe20f43b	-0.15718167
31	0xbe010aff	-0.12601851
32	0xbe91b58c	-0.28458822
33	0x3d9850aa	0.074372604
34	0x3e1d7ce6	0.15379676
35	0xbdca13f5	-0.09867088
36	0xbe60443d	-0.21901031
37	0x3d61f8f2	0.055169053
38	0x3dc5227d	0.09625719
39	0xbe1e25d8	-0.15444124
40	0xbea79b83	-0.32735834
41	0xbe9a3740	-0.30120277
42	0xbf25c9c5	-0.64761
43	0xbefb8bfc	-0.49130237
44	0xbe69acab	-0.22819774
45	0x3d4c9e61	0.04995573
46	0x3e55cd56	0.2087911
47	0x3e00f17c	0.12592119
48	0xbcac40d7	-0.021027012
49	0x3e69452f	0.22780298
50	0x3e3a2ed8	0.18181932
51	0x3d500e21	0.050794724
52	0xbe56fdb4	-0.20995218
53	0x3e65d05c	0.22442764
54	0xbc507540	-0.012723267
55	0x3e201f5e	0.15636966
56	0xbda5dd41	-0.080988415
57	0x3ee05868	0.4381745
58	0x3e773c9e	0.24144217
59	0x3eaa5bea	0.3327325
60	0xbca14334	-0.019685365
61	0x3e26904b	0.16265981
62	0x3eb4c222	0.35304362
63	0x3eef438f	0.4673123
64	0xbd5fa3a1	-0.054599408
65	0x3e698e38	0.22808158
66	0x3e860cd4	0.26181662
67	0x3ed00975	0.40632215
68	0xbf04f9c4	-0.5194361
69	0x3cc4a22a	0.024003107
70	0x3dc11022	0.09426905
71	0xbe70ec0e	-0.23527548
72	0xbeda38ae	-0.42621368
73	0x3e7f94eb	0.24959151
74	0x3f0b897c	0.5450666
75	0xbeabb5ac	-0.33537042
76	0xbdbb75ea	-0.0915335
77	0x3e7da18b	0.24768655
78	0x3ed62ca6	0.4183094
79	0xbe692e13	-0.22771482
80	0xbec1758f	-0.37785003
81	0xbdff0799	-0.12452621
82	0xbe1da717	-0.15395771
83	0xbeebb799	-0.4603851
84	0xbe9dc4ca	-0.308142
85	0xbdbcfaa7	-0.09227496
86	0xbe975a8f	-0.29561278
87	0xbde47104	-0.111543685
88	0x3e32968c	0.17440242
89	0x3e665ab6	0.22495541
90	0xbe14290e	-0.14468786
91	0x3e090ebe	0.1338453
92	0x3eb2264e	0.3479485
93	0x3e84cb84	0.2593652
94	0x3f377f00	0.7167816
95	0x3f86fd9a	1.0546143
96	0x3f211bc2	0.6293298
97	0xbd8b62d9	-0.06805963
98	0x3e04a454	0.12953311
99	0x3d1216cf	0.035666283
100	0x3d1fd0a2	0.039017327
101	0x3dfe5d02	0.124200836
102	0x3c8e3a70	0.01736185
103	0x3ea97d76	0.33103532
104	0x3db63352	0.08896507
105	0x3e97fb1a	0.29683763
106	0x3ed11578	0.40836692
107	0x3e32a80b	0.17446916
108	0xbe0ddd08	-0.13853848
109	0xbe5845d9	-0.21120395
110	0xbd5b1d16	-0.053494535
111	0x3de1e954	0.11030832
112	0xbe87e42a	-0.26541263
113	0x3e1c67cb	0.15273969
114	0x3c9114ca	0.017710108
115	0x3e953089	0.29138592
116	0xbdb5fb1c	-0.08885786
117	0x3e32b722	0.17452672
118	0xbe39e929	-0.1815535
119	0x3eff3edc	0.49852645
120	0x3e2a460c	0.16628283
121	0x3ecdfb8a	0.40230972
122	0x3eba83da	0.3642872
123	0x3e8aec20	0.27133274
124	0xbf1c6cc2	-0.6110345
125	0xbe4d5d2c	-0.20055073
126	0xbf1fd2ef	-0.62431234
127	0xbebd25a7	-0.3694279

linear_mapper.bias f4 [8]
0	0x3f00eeb4	0.5036423
1	0x3d9ddbe8	0.077079594
2	0x3c89c058	0.01681535
3	0x3d7ba9be	0.061441176
4	0xbf11803b	-0.5683629
5	0xbde5bbbd	-0.11217449
6	0xbb5a5397	-0.0033313984
7	0xbeac6a27	-0.33674738

blocks.0.norm1.weight f4 [8]
0	0x3f8b1e48	1.0868616
1	0x3f643ef3	0.8915855
2	0x3f8fa981	1.1223603
3	0x3f8c4a1d	1.0960118
4	0x3f6f5262	0.9348508
5	0x3f6fb855	0.93640643
6	0x3f7c6b56	0.9860128
7	0x3f6130fe	0.8796538

blocks.0.norm1.bias f4 [8]
0	0xbdd33002	-0.10311891
1	0x3e105d09	0.1409799
2	0x3dbdf034	0.09274331
3	0x3e15089a	0.14554062
4	0x3d274e52	0.040846176
5	0x3e005d80	0.12535667
6	0xbe2e5299	-0.17023696
7	0xbe80f6ff	-0.25188443

blocks.0.mhsa.q_mappings.0.weight f4 [4, 4]
0	0xbed7e55f	-0.42167184
1	0x3e8f7dae	0.28025573
2	0x3dbfbf7e	0.09362696
3	0x3f086b14	0.5328839
4	0xbf04d1a4	-0.51882386
5	0x3cdc4ba8	0.026891544
6	0xbf28b1a1	-0.6589604
7	0x3f0e1a62	0.55509007
8	0x3e9f7370	0.3114276
9	0x3e87adc5	0.26499763
10	0x3e52d3ce	0.2058861
11	0xbd2c053e	-0.041997187
12	0x3d07e084	0.0331731
13	0xbd4a941f	-0.049457666
14	0xbdf52d64	-0.11971548
15	0x3e3093f7	0.17243944

blocks.0.mhsa.q_mappings.0.bias f4 [4]
0	0x3f2b1fe1	0.6684552
1	0x3e93f911	0.2890096
2	0xbeee5dfb	-0.46556076
3	0xbe94d37b	-0.29067597

blocks.0.mhsa.q_mappings.1.weight f4 [4, 4]
0	0x3e0a5656	0.13509497
1	0x3eb59035	0.35461584
2	0x3dcc0f37	0.099638395
3	0x3d8a62f5	0.06757156
4	0x3f62ee73	0.88645095
5	0xbed16231	-0.40895227
6	0x3e474d80	0.19463158
7	0xbe8de8a1	-0.27716544
8	0x3f14e61c	0.5816362
9	0x3da00cf6	0.07814972
10	0xbeefe959	-0.46857718
11	0xbe459476	-0.19294915
12	0xbe9dbe4d	-0.3080925
13	0x3dfb5943	0.12272885
14	0xbf501b62	-0.8129178
15	0xbc99730c	-0.018731616

blocks.0.mhsa.q_mappings.1.bias f4 [4]
0	0xbe52db71	-0.20591523
1	0xbeb0f54b	-0.34562144
2	0xbf0ffa03	-0.5624086
3	0x3f68ef63	0.90990275

blocks.0.mhsa.k_mappings.0.weight f4 [4, 4]
0	0xbf88fa3a	-1.0701363
1	0xbee3a428	-0.4446118
2	0x3e808ac9	0.25105885
3	0xbf368c1b	-0.71307534
4	0xbf8fadf4	-1.1224961
5	0xbe895df3	-0.2682949
6	0xbb8f061c	-0.004364742
7	0xbe5426c6	-0.20717916
8	0x3ef5e592	0.4802671
9	0x3ece893a	0.4033907
10	0x3d538a44	0.051645532
11	0x3e2724bb	0.16322605
12	0xbeadb7c8	-0.33929276
13	0xbde92d01	-0.11385537
14	0xbe0db84c	-0.13839835
15	0x3d9d2105	0.076723136

blocks.0.mhsa.k_mappings.0.bias f4 [4]
0	0x3ecbedee	0.39829963
1	0xbe2dd901	-0.16977312
2	0x3e83e61f	0.25761506
3	0x3e36ce2d	0.17852087

blocks.0.mhsa.k_mappings.1.weight f4 [4, 4]
0	0xbdb1d700	-0.08683586
1	0x3d2e21ed	0.042512823
2	0x3ca451ae	0.02005848
3	0xbe7680f6	-0.24072632
4	0xbec49a5c	-0.38399017
5	0x3ecc02fd	0.3984603
6	0xbedecbaf	-0.43514773
7	0xbf151990	-0.5824213
8	0x3cfd04d0	0.030886084
9	0xbddd5fe0	-0.10809302
10	0xbf3277e3	-0.6971418
11	0xbeff5c92	-0.49875313
12	0x3e7597cd	0.23983689
13	0xbea9f8f2	-0.33197743
14	0x3e25cef8	0.16192234
15	0x3f9117e8	1.1335421

blocks.0.mhsa.k_mappings.1.bias f4 [4]
0	0xbec8edd4	-0.39243948
1	0x3ebcaefc	0.36852252
2	0xbecf48cd	-0.4048523
3	0x3f044821	0.5167256

blocks.0.mhsa.v_mappings.0.weight f4 [4, 4]
0	0xbd7ddb18	-0.061976522
1	0x3de92060	0.11383128
2	0x3f590e24	0.847872
3	0xbe4857af	-0.19564699
4	0xbd04661c	-0.03232394
5	0x3e31c6d4	0.17361003
6	0xbf013a1a	-0.5047928
7	0x3e4818d6	0.19540724
8	0x3e52dd7a	0.20592299
9	0x3e5c7ccf	0.21531986
10	0xbdb540f0	-0.088502765
11	0x3e81d8d6	0.25360745
12	0x3dd48b9b	0.1037819
13	0x3ec7be3e	0.3901233
14	0xbe651cf7	-0.2237433
15	0xbea6c346	-0.32570857

blocks.0.mhsa.v_mappings.0.bias f4 [4]
0	0xbe618529	-0.22023453
1	0xbeec6620	-0.46171665
2	0xbdb57744	-0.08860639
3	0x3eb02a98	0.34407496

blocks.0.mhsa.v_mappings.1.weight f4 [4, 4]
0	0xbebdfc62	-0.37106615
1	0x3edf007b	0.43555054
2	0xbed9155b	-0.42399105
3	0x3db05e89	0.08611781
4	0xbe1ad55e	-0.15120456
5	0xbd544c19	-0.051830385
6	0xbe8c2445	-0.2737142
7	0xbeb83cd7	-0.35983917
8	0x3e8c8695	0.27446428
9	0x3edc3690	0.43010378
10	0xbd2f8e64	-0.042860404
11	0xbdd6ce1f	-0.10488533
12	0x3dbf506e	0.093415126
13	0xbd5a49a6	-0.053292893
14	0x3e26a5c2	0.16274169
15	0xbc7d88d6	-0.015474519

blocks.0.mhsa.v_mappings.1.bias f4 [4]
0	0xbddd3b82	-0.10802366
1	0xbf080d17	-0.53144974
2	0x3d9d7943	0.076891445
3	0xbedc3aab	-0.4301351

blocks.0.norm2.weight f4 [8]
0	0x3f8c9c3f	1.0985183
1	0x3f8aa641	1.0831987
2	0x3f659fc7	0.89696926
3	0x3f79307a	0.97339594
4	0x3f5a2049	0.85205513
5	0x3f9490b5	1.1606661
6	0x3f8948cb	1.072534
7	0x3fa0b228	1.2554369

blocks.0.norm2.bias f4 [8]
0	0x3e4951fd	0.19660182
1	0x3daecf4f	0.08535635
2	0x3e1432bf	0.14472483
3	0xbe02f021	-0.12786914
4	0x3e006fb1	0.12542607
5	0x3be9997f	0.007128894
6	0xbe28806d	-0.1645524
7	0x3d66fe3a	0.056394793

blocks.0.mlp.0.weight f4 [32, 8]
0	0x3f101c02	0.56292737
1	0xbd820247	-0.063480906
2	0x3dbadac0	0.091237545
3	0x3e8a6019	0.27026442
4	0xbf064a8e	-0.5245751
5	0xbe96fc6a	-0.29489452
6	0x3e477591	0.19478442
7	0x3cd4ecb1	0.02599177
8	0xbeb4e0c9	-0.35327747
9	0x3eacc54a	0.3374427
10	0x3efc884f	0.49322745
11	0xbe8c995b	-0.2746075
12	0xbe882520	-0.26590824
13	0x3f46ae5f	0.7760982
14	0xbe4315f0	-0.19051337
15	0x3e1b0c93	0.15141515
16	0x3db6ec54	0.08931795
17	0x3de47320	0.11154771
18	0xbd0d7bbc	-0.03454183
19	0x3e55edf7	0.20891558
20	0xbe990359	-0.29885367
21	0xbe98f867	-0.29877016
22	0xbeea3980	-0.45746994
23	0xbe0038d9	-0.12521686
24	0xbee4d61a	-0.44694597
25	0xbe8562d9	-0.26051977
26	0x3f73d3f6	0.952453
27	0xbea0b3b8	-0.31387115
28	0xbe9810df	-0.29700372
29	0x3ba06a99	0.00489552
30	0xbe163b82	-0.14671138
31	0xbea74dd9	-0.3267658
32	0xbee98683	-0.45610437
33	0x3e92e1aa	0.28687793
34	0x3e04da90	0.12974
35	0x3d871efa	0.06597705
36	0x3db3da2c	0.08781847
37	0xbefc5c7a	-0.49289304
38	0xbe8e2b89	-0.2776759
39	0xbca876ff	-0.020564554
40	0x3ea529ec	0.32258546
41	0x3d2d1504	0.04225637
42	0xbe0824ae	-0.13295242
43	0x3ed12661	0.40849593
44	0xbed290ef	-0.411262
45	0xbeaac753	-0.33355197
46	0xbeab22e0	-0.33425045
47	0xbe4de3c3	-0.20106415
48	0xbeaba5d5	-0.33524957
49	0x3f20f39a	0.62871706
50	0xbcfee268	-0.031113818
51	0xbe1fb8de	-0.15597865
52	0xbf1057e6	-0.5638412
53	0x3f01d777	0.507194
54	0x3e9c1988	0.3048823
55	0xbed53748	-0.4164374
56	0xbed35188	-0.4127314
57	0x3e249ea7	0.16076146
58	0xbeb94938	-0.36188674
59	0xbeac4c81	-0.33652118
60	0x3eb391f8	0.35072303
61	0x3ef7cc1f	0.4839792
62	0x3ee87ad0	0.45406199
63	0xbf17cbea	-0.59295523
64	0x3f176833	0.5914337
65	0xbd57096c	-0.05249922
66	0x3eda1354	0.4259287
67	0xbe8563ce	-0.26052707
68	0x3ed3a528	0.41336942
69	0xbe455784	-0.19271666
70	0xbf1936d7	-0.59849304
71	0xbee8d71a	-0.4547661
72	0x3e4e0051	0.20117308
73	0x3eb676f3	0.35637626
74	0xbe8710f1	-0.26380113
75	0x3d846949	0.06465394
76	0x3e6ab9f7	0.22922502
77	0xbe8a59a3	-0.27021512
78	0xbe9d2bc3	-0.3069745
79	0xbe4f30aa	-0.20233408
80	0xbe8fa7e5	-0.2805778
81	0x3f077274	0.52909017
82	0x3e8f9f97	0.28051445
83	0xbf0f37b4	-0.5594437
84	0xbe0439c9	-0.12912668
85	0x3ec0ca28	0.37654233
86	0xbf0bcf4c	-0.54613185
87	0x3d4b63ef	0.04965585
88	0xbf0aa7d1	-0.5416232
89	0x3f073167	0.52809757
90	0x3f098329	0.5371576
91	0x3eb0e7fb	0.34551987
92	0x3ddb5e15	0.10711304
93	0x3deebd8c	0.11657247
94	0x3f329433	0.69757384
95	0x3e89555d	0.2682294
96	0xbc8be942	-0.017079
97	0xbeb82313	-0.3596426
98	0x3d8a219e	0.06744693
99	0x3ed9327d	0.42421332
100	0xbe159335	-0.14606936
101	0xbe1e66d1	-0.15468909
102	0xbe91e9a3	-0.28498563
103	0xbf4a3dd8	-0.79000616
104	0x3ba30552	0.0049749995
105	0xbed198c4	-0.40936863
106	0xbe7fd9d4	-0.24985439
107	0xbe68167d	-0.22664829
108	0xbe20a4d3	-0.15687875
109	0x3f418620	0.75595284
110	0xbd5d1d7a	-0.05398319
111	0xbc831c30	-0.016004652
112	0xbd91b62d	-0.071148254
113	0xbebddbba	-0.370817
114	0xbe1fe796	-0.15615687
115	0xbe0cf43b	-0.13765042
116	0xbe11fe30	-0.14257121
117	0x3e8a2c14	0.26986754
118	0x3e5e930d	0.21735783
119	0xbeaf28b0	-0.3421073
120	0xbe010609	-0.12599958
121	0xbf870887	-1.0549477
122	0x3dd807a4	0.10548332
123	0xbd47652e	-0.048680477
124	0x3e835b54	0.25655615
125	0x3f12077d	0.57042676
126	0xbe131b14	-0.14365798
127	0x3f14a62d	0.58066064
128	0xbe79d60e	-0.24398062
129	0xbc65208d	-0.0139848115
130	0x3ed167ef	0.40899608
131	0x3c02d567	0.007985449
132	0xbf0a986d	-0.54138833
133	0xbe8ad148	-0.27112794
134	0xbe718342	-0.23585227
135	0x3d100532	0.035161205
136	0x3da4e2aa	0.08051045
137	0xbedc0b71	-0.4297748
138	0xbd1b4dda	-0.037916042
139	0xbd067da5	-0.032834668
140	0xbd67e51d	-0.056614984
141	0x3ebf5b45	0.3737432
142	0x3ea39b14	0.31954253
143	0xbed59239	-0.41713122
144	0x3b2a0828	0.0025944803
145	0xbd41c533	-0.047307204
146	0xbe1e1963	-0.15439372
147	0xbf58adf8	-0.84640455
148	0xbe0a7c4b	-0.13523977
149	0x3f336c82	0.70087445
150	0x3dd55bf1	0.10417927
151	0x3f22370a	0.6336523
152	0xbd89763a	-0.06712003
153	0x3f0e77b8	0.55651426
154	0x3eaa526d	0.3326601
155	0xbf366b8e	-0.71257865
156	0x3d8204d9	0.06348581
157	0x3c11edf8	0.008906834
158	0xbed291da	-0.411269
159	0xbe98eb36	-0.29866952
160	0x3e3b0c41	0.18266393
161	0xbe06ddbf	-0.13170527
162	0xbdeb0aa3	-0.11476638
163	0xbe816eed	-0.25279942
164	0xbd969b3f	-0.073538296
165	0xbe99005a	-0.2988308
166	0xbe300aec	-0.17191666
167	0x3da4caa9	0.08046467
168	0x3e8e6e64	0.27818596
169	0xbe8ad191	-0.2711301
170	0x3d8740a6	0.066041276
171	0xbe964a74	-0.29353678
172	0x3e4e3ceb	0.20140426
173	0x3f279edb	0.6547677
174	0x3d672501	0.056431774
175	0x3e97b48d	0.29629937
176	0xbf29e694	-0.6636746
177	0xbe616bae	-0.22013733
178	0x3e8f5df7	0.28001377
179	0x3f0b1bad	0.54339105
180	0xbf046db5	-0.517299
181	0x3f100485	0.56256896
182	0x3ebc2b5b	0.36751828
183	0xbf02e604	-0.51132226
184	0xbe325b77	-0.17417704
185	0x3ea75a10	0.326859
186	0x3de7930e	0.11307345
187	0x3e30b0a5	0.17254885
188	0xbe957ac5	-0.29195228
189	0xbde2dae1	-0.11076904
190	0x3e86505b	0.2623318
191	0xbe32806e	-0.17431805
192	0xbdd3623b	-0.1032147
193	0xbe07682e	-0.13223335
194	0x3e8313d4	0.25601065
195	0x3db8bd82	0.09020521
196	0xbe3d175d	-0.18465944
197	0x3e37ecc6	0.17961416
198	0xbde10296	-0.10986821
199	0x3eb8e97d	0.36115637
200	0xbf4d02e8	-0.8008256
201	0xbf228aa8	-0.6349282
202	0x3e4040f0	0.18774772
203	0x3e970b56	0.29500836
204	0x3f29e9aa	0.6637217
205	0xbe8d5ec7	-0.27611372
206	0x3e7b1581	0.24519922
207	0x3d9d3bec	0.07677445
208	0x3e937e01	0.2880707
209	0xbf077174	-0.5290749
210	0x3f221e4e	0.6332749
211	0x3e9d82e2	0.30763918
212	0xbed0a3be	-0.40749925
213	0xbe8110d0	-0.2520814
214	0xbe4808f0	-0.1953466
215	0xbe41ec16	-0.18937716
216	0x3d90b93b	0.0706658
217	0xbe3d5083	-0.18487744
218	0x3e07bb93	0.13255148
219	0x3dbc4ebb	0.09194704
220	0x3dfbe4a6	0.122994706
221	0x3ddd954c	0.10819492
222	0x3eb9b4d6	0.3627078
223	0xbef403f8	-0.47659278
224	0xbf160341	-0.58598715
225	0xbf24125a	-0.640905
226	0x3d38d384	0.045123592
227	0x3e4d4260	0.20044851
228	0x3f4efb2f	0.80852026
229	0xbe92aa43	-0.28645524
230	0x3f03ead6	0.51530206
231	0x3b1fba41	0.002437249
232	0xbee27449	-0.44229344
233	0x3e99c523	0.30033216
234	0xbd809937	-0.062792234
235	0x3edfdf28	0.43724942
236	0xbe5bb108	-0.21454251
237	0x3e82bdaf	0.25535342
238	0xbf07b1d2	-0.5300571
239	0x3dd6924c	0.10477123
240	0xbf02e8a9	-0.5113626
241	0xbe0ec785	-0.13943298
242	0xbee60a57	-0.44929764
243	0xbef0d07f	-0.4703407
244	0x3ebce593	0.368939
245	0x3f3f6a30	0.74771404
246	0x3f0e305b	0.55542535
247	0x3f8710ab	1.0551962
248	0x3eb2a141	0.34888652
249	0xbee95155	-0.45569864
250	0x3e446cd3	0.19182138
251	0x3dcf8b43	0.10133984
252	0x3d805497	0.06266134
253	0x3f0e12eb	0.55497617
254	0x3f3de91f	0.7418384
255	0xbaec9280	-0.0018049031

blocks.0.mlp.0.bias f4 [32]
0	0x3dac4dc3	0.08413269
1	0xbe8e9bdf	-0.27853295
2	0xbe520ef1	-0.20513512
3	0xbe186f6b	-0.14886253
4	0x3e344873	0.17605762
5	0xbe902f78	-0.28161216
6	0xbe0c605f	-0.13708638
7	0xbe356c8f	-0.17717193
8	0xbc9e2115	-0.019302884
9	0xbe5c25b1	-0.21498753
10	0xbdbcc5ff	-0.09217452
11	0xbe9f0e10	-0.31065416
12	0xbe749680	-0.23885536
13	0xbea45e55	-0.3210322
14	0xbe28dad0	-0.1648972
15	0xbdbd7f76	-0.09252827
16	0xbeb40859	-0.3516262
17	0xbd7cad18	-0.061688513
18	0xbe92c580	-0.28666306
19	0x3e24cdcc	0.1609413
20	0xbe152ff7	-0.14569078
21	0xbe84439b	-0.2583283
22	0xbed0271f	-0.40654847
23	0xbe850df7	-0.25987217
24	0x3d464d18	0.048413366
25	0xbedafddc	-0.42771804
26	0xbed9bf1a	-0.4252861
27	0xbe9b6bbc	-0.30355632
28	0xbf370f43	-0.7150766
29	0xbe81ee0e	-0.25376934
30	0xbec9ee8a	-0.39439803
31	0xbe1ee34b	-0.15516393

blocks.0.mlp.2.weight f4 [8, 32]
0	0x3e10e711	0.14150645
1	0x3e0f5b19	0.13999595
2	0xbdfa457e	-0.12220286
3	0x3dbc1d21	0.091852434
4	0xbebc3162	-0.36756426
5	0x3d36c583	0.044621956
6	0xbf0c5c43	-0.5482828
7	0xbe050a33	-0.12992172
8	0x3d79c62f	0.06098002
9	0xbd1ec5b1	-0.038762752
10	0xbd434eb7	-0.04768249
11	0xbe5f836d	-0.21827479
12	0xbd9f2f51	-0.07772697
13	0xbcfc5ec9	-0.030806916
14	0x3e1161cc	0.14197463
15	0xbe174f0e	-0.1477625
16	0x3e9e38f5	0.3090283
17	0x3e5ab42a	0.2135779
18	0x3e57913b	0.21051495
19	0xbe0a40b6	-0.13501248
20	0x3c09e12f	0.008415504
21	0x3ea132f8	0.314842
22	0xbeafdd46	-0.34348506
23	0xbd9567c2	-0.07295181
24	0x3d81f602	0.063457504
25	0xbf0dbbe3	-0.5536482
26	0x3e9525fe	0.29130548
27	0x3e3a4040	0.18188572
28	0xbed21145	-0.410288
29	0xbe002618	-0.12514532
30	0xbe1607d0	-0.14651418
31	0x3f11affb	0.5690915
32	0x3e3ad184	0.18243986
33	0xbeeaa143	-0.45826158
34	0x3dec09cf	0.11525308
35	0xbed09f1c	-0.4074639
36	0x3e9b63e6	0.30349654
37	0xbcdf66d6	-0.027270716
38	0xbd3fe1ad	-0.04684608
39	0xbe633429	-0.22187866
40	0x3f2cf3a6	0.6755928
41	0xbcc6cf78	-0.02426885
42	0xbe959b45	-0.29220024
43	0x3e2255b8	0.15853012
44	0xbb830565	-0.003998446
45	0x3e124226	0.14283046
46	0xbc1f8e8e	-0.0097385775
47	0x3e58b996	0.21164545
48	0x3daeb86e	0.08531271
49	0xbdd67898	-0.1047222
50	0xbf0da3d4	-0.55328107
51	0x3d30459a	0.043035127
52	0x3bec5d4a	0.0072132694
53	0x3e429380	0.1900158
54	0xbe9009e3	-0.28132543
55	0x3e9004f7	0.28128788
56	0x3e01cc26	0.12675533
57	0xbddc33a3	-0.107520364
58	0xbc02f6fc	-0.007993456
59	0xbd708651	-0.058721844
60	0xbf0c816d	-0.5488499
61	0x3e0e1077	0.13873468
62	0xbc77417d	-0.015091297
63	0xbdf85cbb	-0.12127062
64	0xbeb815d6	-0.3595416
65	0xbdb3ee3e	-0.087856755
66	0xbeb40231	-0.35157922
67	0x3f1a4c9c	0.60273147
68	0xbe8f412e	-0.27979416
69	0xbe34548c	-0.17610377
70	0x3e454e00	0.19268036
71	0x3e5173f6	0.20454392
72	0x3d252576	0.04031893
73	0xbea1fa63	-0.31636342
74	0x3e43c88e	0.19119474
75	0x3e0664c0	0.1312437
76	0x3d9b6f2b	0.07589563
77	0x3eb68fc0	0.35656548
78	0x3ea0ad47	0.313822
79	0x3f2743f2	0.6533805
80	0xbe9ee5fc	-0.3103484
81	0x3ec78896	0.38971394
82	0xbc7aaad5	-0.015299519
83	0x3dcd53f5	0.10025779
84	0xbea8270b	-0.32842287
85	0x3eaaa5fc	0.3332976
86	0xbeb5260e	-0.35380596
87	0xbce33b8c	-0.027738355
88	0xbe62dd89	-0.22154821
89	0xbe16548a	-0.14680687
90	0x3d1d7823	0.03844465
91	0x3e5a16f2	0.21297815
92	0x3e8875ce	0.26652378
93	0xbe813d76	-0.25242203
94	0x3e327ffc	0.17431635
95	0x3e4f2a20	0.20230913
96	0x3c6f0f86	0.014591103
97	0x3e8b4003	0.27197275
98	0xbd239781	-0.039939407
99	0x3d93b300	0.07211876
100	0xbe1c070e	-0.15237066
101	0x3d0972e6	0.03355684
102	0x3f1c059d	0.60946065
103	0xbd654164	-0.055970564
104	0xbe08346b	-0.13301246
105	0xbe4090a0	-0.1880517
106	0x3eb9c66f	0.36284205
107	0x3e8642ad	0.26222745
108	0x3ed3d901	0.41376498
109	0x3ccbcefe	0.024878975
110	0xbdb34240	-0.087528706
111	0x3efd0963	0.49421224
112	0x3dc3bc22	0.09557368
113	0xbe347ca8	-0.17625678
114	0x3eeaac01	0.45834354
115	0x3e68f58c	0.22749919
116	0xbe79ba2f	-0.2438743
117	0x3e35ce5a	0.17754498
118	0xbc016ce7	-0.0078994995
119	0x3e7759a3	0.24155287
120	0xbdee610f	-0.11639606
121	0x3e415a41	0.18882085
122	0x3e80559a	0.2506531
123	0x3d1577a3	0.036491048
124	0x3f176ca5	0.59150153
125	0xbe596782	-0.21230891
126	0xbb873635	-0.004126335
127	0x3d7ae49a	0.061253168
128	0xbce571f8	-0.028008446
129	0xbe519ed4	-0.20470744
130	0x3e165037	0.14679037
131	0xbef1500d	-0.47131386
132	0xbe1cf325	-0.15327127
133	0x3edf60bf	0.436285
134	0xbe23c169	-0.15991749
135	0x3e997e02	0.2997895
136	0xbe66894a	-0.22513309
137	0x3e26459f	0.16237496
138	0xbe140d0e	-0.14458105
139	0xbec126fc	-0.37725055
140	0x3e1b4bd2	0.15165642
141	0xbe80bad0	-0.25142527
142	0xbd65f611	-0.05614287
143	0xbdeebb39	-0.11656804
144	0xbe11c954	-0.14236957
145	0xbe25c039	-0.16186608
146	0x3e84a12b	0.2590421
147	0xbe09b5e8	-0.13448298
148	0xbdd431fd	-0.10361097
149	0xbe4f9872	-0.20272997
150	0xbd83732f	-0.06418454
151	0x3d34d440	0.04414773
152	0x3d2f533e	0.042803995
153	0x3d4fd874	0.050743535
154	0xbe8a4446	-0.27005213
155	0x3dfc526a	0.12320407
156	0x3dfd2c81	0.12362004
157	0x3ea291f9	0.31751993
158	0x3f5bc86a	0.8585268
159	0xbdf656d3	-0.12028279
160	0x3ebbc5ae	0.36674255
161	0x3e007d9d	0.12547918
162	0x3c867724	0.016414233
163	0xbe1be841	-0.15225317
164	0x3db5921b	0.08865758
165	0x3ea4f762	0.32219988
166	0x3e13e7a5	0.14443834
167	0xbcc48f58	-0.023994133
168	0xbf26bcfd	-0.65132123
169	0x3ef810f6	0.4845044
170	0x3d09f4d9	0.03368077
171	0xbebeba97	-0.37251732
172	0xbd9cf3f9	-0.076637216
173	0xbf18ec58	-0.5973563
174	0xbed458eb	-0.4147409
175	0xbe9850bb	-0.29749092
176	0xbdc26212	-0.09491362
177	0xbeb85652	-0.36003357
178	0xbf59efd0	-0.8513155
179	0xbe11c537	-0.14235388
180	0x3d27eda7	0.040998127
181	0xbef92013	-0.48657283
182	0x3e956fce	0.29186863
183	0x3d96c15d	0.073611
184	0x3cb06930	0.021534532
185	0x3d9bff92	0.076171055
186	0x3e8e78c2	0.27826506
187	0xbe6472d9	-0.22309436
188	0x3a2cf6be	0.0006598047
189	0x3d882bd4	0.066489846
190	0x3e9d91b6	0.3077523
191	0xbe364b73	-0.17802219
192	0xbe935130	-0.2877288
193	0x3efbfedb	0.49217877
194	0xbdcf34da	-0.101175025
195	0x3eca4ef4	0.3951336
196	0x3e84618e	0.25855678
197	0xbe4a9f33	-0.19787292
198	0xbde8228a	-0.11334713
199	0xbeed47d9	-0.46343878
200	0xbe17d375	-0.14826758
201	0xbd52ca88	-0.05146268
202	0x3e93738c	0.28799093
203	0x3f055b5f	0.52092546
204	0xbcecb636	-0.028895479
205	0xbeb22d3b	-0.34800133
206	0xbb750f39	-0.0037393107
207	0xbf6c1984	-0.92226434
208	0x3e1abc9c	0.15111011
209	0xbe54f97a	-0.20798293
210	0xbe105ccb	-0.14097898
211	0xbd5a31a9	-0.053270016
212	0x3ae05513	0.0017115198
213	0xbe5234e6	-0.20527992
214	0x3f297d12	0.6620647
215	0x3daa1d64	0.08306387
216	0x3e3a766b	0.18209235
217	0x3ec9e9f8	0.39436316
218	0xbefa7484	-0.4891702
219	0x3c2998a7	0.010351337
220	0x3d11199f	0.035424825
221	0x3ef4daef	0.47823283
222	0xbdd68fab	-0.10476621
223	0xbeef7455	-0.46768442
224	0xbeb03423	-0.34414777
225	0x3eb77ffd	0.35839835
226	0xbe024cd6	-0.12724623
227	0xbf02caf7	-0.5109095
228	0x3e873eca	0.26415092
229	0xbe3e9583	-0.18611722
230	0x3ea041ae	0.3130011
231	0xbc46bf90	-0.012130633
232	0x3d21f6c2	0.039541967
233	0x3df1cfdf	0.118072264
234	0x3f256de5	0.6462081
235	0x3edf0ccf	0.4356446
236	0xbd1657b5	-0.036704738
237	0x3e686a13	0.22696714
238	0x3cf7eb4b	0.030263564
239	0xbf125298	-0.5715728
240	0xbe4ad50f	-0.19807838
241	0x3cf7d932	0.030254934
242	0x3e65150a	0.22371307
243	0x3f1e910d	0.6194008
244	0xbd6ea2b4	-0.058260635
245	0xbca78767	-0.020450307
246	0xbdd55306	-0.10416226
247	0x3e1694a1	0.14705135
248	0xbe5d740a	-0.21626297
249	0x3e1f064a	0.15529743
250	0xbe31dc62	-0.17369226
251	0x3de3bdfd	0.11120222
252	0x3ea2e9df	0.31819054
253	0xbd883f58	-0.06652707
254	0xbe8be063	-0.2731963
255	0xbe2e737e	-0.17036244

blocks.0.mlp.2.bias f4 [8]
0	0xbd370f6f	-0.044692453
1	0x3e961153	0.29310092
2	0x3ce71d2f	0.028212158
3	0xbd97329e	-0.07382701
4	0x3dc8e2c3	0.09808876
5	0x3dfa9354	0.12235132
6	0x3c64bfcf	0.013961746
7	0xbe4c61e0	-0.19959211

blocks.1.norm1.weight f4 [8]
0	0x3fa93ab5	1.3221041
1	0x3f91b90b	1.1384596
2	0x3f8cd95b	1.1003832
3	0x3f9682a9	1.1758624
4	0x3fb4c8fd	1.4123837
5	0x3f8edb75	1.1160723
6	0x3f91d2da	1.1392472
7	0x3fb535fa	1.4157097

blocks.1.norm1.bias f4 [8]
0	0xbd8de168	-0.069277585
1	0x3d7f3d9f	0.062314626
2	0xbd3464ea	-0.04404155
3	0x3d3405e8	0.043950945
4	0x3e6b1430	0.2295692
5	0x3d9758b2	0.07389964
6	0x3d0043f6	0.031314813
7	0x3ddf03a7	0.108893685

blocks.1.mhsa.q_mappings.0.weight f4 [4, 4]
0	0x3e603807	0.21896373
1	0xbeceff24	-0.40429032
2	0x3ee0dc46	0.43918055
3	0xbe80bf1b	-0.25145802
4	0xbbdf91c8	-0.0068227984
5	0x3e0a587e	0.1351032
6	0xbe1cab85	-0.15299805
7	0x3e87bfe8	0.265136
8	0xbf386ebd	-0.72043973
9	0x3ed9c1f2	0.4253078
10	0xbeb29e1f	-0.34886262
11	0x3e034464	0.12819058
12	0x3e966bf5	0.2937924
13	0x3edb4b74	0.42831004
14	0xbde16e1e	-0.11007331
15	0x3d30ca55	0.04316171

blocks.1.mhsa.q_mappings.0.bias f4 [4]
0	0xbe06eee8	-0.13177073
1	0x3ed584d3	0.417029
2	0xbe7c4747	-0.24636565
3	0x3efd11da	0.49427682

blocks.1.mhsa.q_mappings.1.weight f4 [4, 4]
0	0x3ecfbce7	0.4057381
1	0x3f35daba	0.71036875
2	0xbea2f4fb	-0.3182753
3	0xbe793583	-0.2433682
4	0x3e312dd0	0.17302632
5	0x3f21412b	0.62990063
6	0x3d0eb39c	0.034839258
7	0xbe65f934	-0.22458345
8	0xbe8b8be5	-0.2725517
9	0xbc9cd337	-0.019143684
10	0xbe54e443	-0.207902
11	0xbeac8239	-0.33693102
12	0x3dc79ff7	0.09747308
13	0x3d290f23	0.0412742
14	0xbeaadc79	-0.33371332
15	0xbd620a3c	-0.05518554

blocks.1.mhsa.q_mappings.1.bias f4 [4]
0	0xbeb01ecb	-0.34398493
1	0x3f37dcc1	0.7182122
2	0xbf423a31	-0.75870043
3	0xbf0f38b5	-0.55945903

blocks.1.mhsa.k_mappings.0.weight f4 [4, 4]
0	0x3de30015	0.11084
1	0xbe0c3d7d	-0.13695331
2	0x3f17e8ff	0.593399
3	0x3f643e71	0.8915778
4	0x3e32eace	0.17472383
5	0x3eac68a3	0.3367358
6	0xbd209c33	-0.039211463
7	0xbf304df8	-0.6886897
8	0x3f07b554	0.5301106
9	0x3f0999a1	0.53750044
10	0xbedc8f4b	-0.43078074
11	0x3ee739fe	0.45161432
12	0x3d05d2d9	0.032671783
13	0xbe72b979	-0.23703565
14	0xbed53006	-0.416382
15	0xbf2be5da	-0.671476

blocks.1.mhsa.k_mappings.0.bias f4 [4]
0	0xbe4c9492	-0.1997855
1	0xbeca264b	-0.3948234
2	0x3b8abe12	0.004234084
3	0xbd7f49cb	-0.062326234

blocks.1.mhsa.k_mappings.1.weight f4 [4, 4]
0	0x3eadfeae	0.33983368
1	0x3ecf425b	0.40480313
2	0xbf447750	-0.76744556
3	0x3e6cd627	0.23128568
4	0xbf09cdbd	-0.53829557
5	0xbe2e776a	-0.1703774
6	0x3ea37705	0.31926742
7	0x3f1c2add	0.61002904
8	0x3f31b881	0.69422156
9	0x3e8d3fe3	0.27587804
10	0xbeb75fa2	-0.3581515
11	0xbf13cc0d	-0.5773323
12	0x3f17a0b5	0.59229594
13	0xbe718b21	-0.2358823
14	0xbe69cccf	-0.22832035
15	0xbeb2f5f1	-0.34953263

blocks.1.mhsa.k_mappings.1.bias f4 [4]
0	0x3d6c875f	0.057746287
1	0x3f087d0b	0.533158
2	0x3dcbbfb0	0.09948671
3	0xbe9d3feb	-0.30712828

blocks.1.mhsa.v_mappings.0.weight f4 [4, 4]
0	0x3ea90413	0.3301092
1	0xbdc9683c	-0.09834334
2	0xbe5f81ef	-0.2182691
3	0x3eb88116	0.36035985
4	0x3f39621a	0.72415316
5	0xbf59a49e	-0.8501681
6	0x3d941fd9	0.07232637
7	0x3ef337a3	0.47503385
8	0xbfa1d2e8	-1.2642488
9	0x3eeb5e7d	0.45970526
10	0xbf1b095c	-0.60561156
11	0xbdf6d2de	-0.120519385
12	0x3f81133e	1.0083997
13	0xbf352a08	-0.7076726
14	0x3ee3dcf5	0.44504514
15	0x3e114292	0.14185551

blocks.1.mhsa.v_mappings.0.bias f4 [4]
0	0x3dad1d9c	0.08452913
1	0x3e4face1	0.20280792
2	0x3ef81252	0.48451477
3	0x3e7eaf0b	0.24871461

blocks.1.mhsa.v_mappings.1.weight f4 [4, 4]
0	0x3f74b6a6	0.955912
1	0x3ea96fa3	0.33092985
2	0x3f38edff	0.72238153
3	0x3f12ffc8	0.5742154
4	0xbf949ad8	-1.1609755
5	0xbd431f99	-0.047637556
6	0xbe9d5f7c	-0.3073691
7	0xbf4d31c7	-0.8015408
8	0x3ecc377d	0.39886084
9	0xbf3a7b21	-0.7284413
10	0xbf0f2196	-0.55910623
11	0xbead8f66	-0.33898467
12	0xbe31a1fb	-0.17346947
13	0x3f39cf66	0.7258209
14	0x3f6b00bf	0.91798013
15	0xbf6ff2c7	-0.93729824

blocks.1.mhsa.v_mappings.1.bias f4 [4]
0	0xbee40b21	-0.4453974
1	0xbe6f6293	-0.23377447
2	0xbe846a2a	-0.25862247
3	0xbefc4652	-0.492724

blocks.1.norm2.weight f4 [8]
0	0x3fc677c8	1.5505304
1	0x3fe9de9f	1.8271064
2	0x3fda8882	1.7072909
3	0x3fb7458c	1.4318099
4	0x3fcff2f9	1.6246024
5	0x3fd85d2b	1.6903433
6	0x3ff0c33c	1.8809581
7	0x3fcd350c	1.6031814

blocks.1.norm2.bias f4 [8]
0	0x3e2d36e3	0.16915469
1	0xbf06388b	-0.5243003
2	0x3d54dc62	0.051967986
3	0xbdcca7aa	-0.09992917
4	0xbd3740ca	-0.044739522
5	0xbc6e7028	-0.014553107
6	0xbdf3093b	-0.11866995
7	0x3e4687ad	0.19387694

blocks.1.mlp.0.weight f4 [32, 8]
0	0xbdf56f66	-0.11984138
1	0xbe051eb7	-0.12999998
2	0xbe9fea17	-0.31233284
3	0xbea6f7f0	-0.32611036
4	0x3eb6a8c1	0.35675624
5	0xbec869df	-0.39143273
6	0xbd3ec9f6	-0.046579324
7	0x3f703a97	0.938394
8	0xbdd123b2	-0.102118865
9	0x3f1a1424	0.6018698
10	0xbf78aa37	-0.9713473
11	0x3f348115	0.70509464
12	0x3f099b4c	0.5375259
13	0xbe3381aa	-0.17529932
14	0xbf333630	-0.7000456
15	0x3e99ef79	0.30065516
16	0x3ea28895	0.3174483
17	0xbe5fa54d	-0.21840401
18	0x3f36dc9b	0.7143037
19	0xbe1cc6e2	-0.15310243
20	0x3cac9e84	0.02107168
21	0xbf408dbe	-0.7521628
22	0x3e1c530a	0.15266052
23	0xbea7c097	-0.32764122
24	0x3ea67026	0.32507437
25	0xbf2f713f	-0.68532175
26	0xbf273da6	-0.65328443
27	0x3f03977b	0.51403016
28	0xbf2949f1	-0.6612845
29	0xbe24430a	-0.16041198
30	0x3e5f2b8c	0.21793956
31	0x3deb8769	0.11500437
32	0x3e51a4dd	0.20473047
33	0xbf187a20	-0.5956135
34	0xbeb2b4cd	-0.34903565
35	0x3c3e3893	0.011610168
36	0x3ec37aa1	0.38179496
37	0xbe2d1578	-0.16902721
38	0xbf3afb85	-0.7304004
39	0x3f4330e6	0.7624649
40	0x3e650acb	0.22367398
41	0xbe00d127	-0.12579785
42	0xbee9d9d2	-0.45673996
43	0x3f54a892	0.8306972
44	0xbe3e61de	-0.18592021
45	0x3eb44646	0.35209864
46	0xbf08e277	-0.5347056
47	0x3d439ec5	0.047758836
48	0x3cb3f85b	0.021969011
49	0xbe5dff96	-0.2167953
50	0xbf1aa6fb	-0.6041104
51	0xbf475e05	-0.7787784
52	0x3f10a901	0.5650788
53	0x3eab5c10	0.33468676
54	0x3ebbc145	0.3667089
55	0x3f4a2ea9	0.7897745
56	0x3f207a5a	0.62686694
57	0xbf682b04	-0.90690637
58	0xbedf6829	-0.43634155
59	0x3eafa1db	0.34303173
60	0xbd5524f2	-0.052037187
61	0xbe390308	-0.18067563
62	0x3e7526a3	0.2394052
63	0x3e06a221	0.13147785
64	0x3f857464	1.0426145
65	0x3e3296d5	0.1744035
66	0xbd3fbb9f	-0.04680979
67	0xbe47c3f4	-0.19508344
68	0x3e69e42f	0.22840951
69	0x3d9011a4	0.07034615
70	0xbf57c913	-0.8429119
71	0xbe9e0829	-0.308656
72	0x3f4392db	0.7639596
73	0xbcadb0fc	-0.021202557
74	0x3ddd61a8	0.10809642
75	0xbd64698e	-0.055764727
76	0x3d04d65f	0.032431003
77	0xbe6fe11d	-0.23425718
78	0xbf6b7bdf	-0.9198589
79	0xbf2fdc13	-0.6869518
80	0xbeea81b4	-0.4580208
81	0xbec76888	-0.3894694
82	0x3eca913e	0.39563936
83	0xbccdcf22	-0.025123183
84	0x3f23c553	0.6397297
85	0xbf1ab0b7	-0.60425895
86	0x3f265a36	0.649814
87	0xbe49b389	-0.19697393
88	0xbf484859	-0.78235394
89	0xbdfadcde	-0.12249158
90	0x3e8cb75f	0.2748365
91	0x3e0b792f	0.13620447
92	0x3dc95015	0.098297276
93	0x3dc42cd2	0.09578861
94	0xbe2fc499	-0.1716484
95	0x3f42a16b	0.76027554
96	0xbf186197	-0.5952391
97	0x3eb056b1	0.3444114
98	0x3f86f1b4	1.0542512
99	0x3e3d585e	0.1849074
100	0x3d88feb9	0.066892095
101	0xbecd711f	-0.40125367
102	0xbedcc7f1	-0.43121293
103	0xbd2e1570	-0.042500913
104	0xbf616398	-0.88042593
105	0x3f5568ae	0.83362854
106	0x3f3f4f96	0.74730814
107	0x3ea81ec5	0.32835975
108	0x3b39e259	0.0028363673
109	0x3ed11aaa	0.40840656
110	0xbec945b6	-0.39310998
111	0xbe09df49	-0.13464083
112	0xbec11a28	-0.37715268
113	0xbf42238f	-0.7583551
114	0x3f19273b	0.59825486
115	0xbeea5fd4	-0.45776236
116	0x3f4ec1b4	0.8076432
117	0xbe2824f6	-0.1642035
118	0x3ebdc22d	0.37062207
119	0xbf142d13	-0.5788128
120	0xbcff4481	-0.031160595
121	0xbe25fe2e	-0.16210243
122	0xbf408d11	-0.7521525
123	0xbd3cbf5f	-0.046080943
124	0x3f5e760d	0.8689888
125	0xbe26bf3b	-0.16283886
126	0xbf5e84b1	-0.8692122
127	0x3f4b8b41	0.7950936
128	0x3f03c7b9	0.5147663
129	0xbf8ef978	-1.1169882
130	0x3f494742	0.78624356
131	0x3e1575a0	0.14595652
132	0x3ec7ab47	0.38997862
133	0xbecbd54a	-0.39811164
134	0xbd8773d0	-0.06613886
135	0x3d9c97d3	0.07646146
136	0x3e721357	0.2364019
137	0x3f179390	0.5920954
138	0xbedb797a	-0.42866117
139	0x3ec0bb82	0.37643057
140	0x3ef91461	0.4864836
141	0xbf431d09	-0.7621618
142	0xbeb755f4	-0.35807765
143	0xbebd54d8	-0.36978793
144	0xbe20ab5b	-0.15690367
145	0xbf094781	-0.5362473
146	0xbef9d46f	-0.48794886
147	0x3db41ff1	0.08795155
148	0xbf839ce1	-1.0282251
149	0x3e9a3919	0.30121687
150	0x3f34317f	0.70388025
151	0xbdb6e710	-0.089307904
152	0x3f232a15	0.6373609
153	0xbec86fa4	-0.39147675
154	0xbf07ce66	-0.53049314
155	0x3f232b17	0.63737625
156	0xbe918ab4	-0.28426135
157	0x3e243e6a	0.16039434
158	0xbe5db02d	-0.21649237
159	0xbb8c076a	-0.0042733448
160	0x3ebea726	0.372369
161	0xbf6ac87d	-0.9171217
162	0x3f2df4dc	0.6795175
163	0xbf95c0dc	-1.1699481
164	0x3f01cb7c	0.5070112
165	0x3da98807	0.08277898
166	0xbe522ca9	-0.20524849
167	0xbebab71b	-0.36467823
168	0x3e5ba53d	0.21449752
169	0xbf29b941	-0.662983
170	0x3f0db928	0.5536065
171	0xbe8de0d0	-0.2771058
172	0xbf5b84f5	-0.8574975
173	0x3ec5ef73	0.38659248
174	0x3eb81c7f	0.3595924
175	0x3f29eb32	0.66374505
176	0xbdf3abaf	-0.118979804
177	0xbddba7d2	-0.107253686
178	0x3f5f0770	0.87120724
179	0xbe0f7389	-0.14008917
180	0x3e81ceff	0.25353238
181	0xbcfeeb4b	-0.031118056
182	0xbea3dafb	-0.32003006
183	0x3d8134cb	0.063088976
184	0x3e031e85	0.12804611
185	0xbe3431da	-0.17597142
186	0x3f24858d	0.6426628
187	0xbf5df260	-0.8669796
188	0xbedf40d6	-0.43604153
189	0x3ea2a77f	0.31768414
190	0xbe5e9d1d	-0.21739621
191	0xbe0bff84	-0.1367169
192	0xbe4a1db1	-0.19737889
193	0x3f4adbae	0.79241455
194	0x3e79a8dd	0.24380822
195	0xbef9f598	-0.48820186
196	0xbe9bac3d	-0.30404845
197	0x3eaedf85	0.34154907
198	0x3f112171	0.5669165
199	0xbf86f8c3	-1.0544666
200	0x3e3221a5	0.17395647
201	0x3f3f8f65	0.7482818
202	0xbf5f5b04	-0.87248254
203	0x3d4c4892	0.049873896
204	0x3ecf8bde	0.40536398
205	0xbf443077	-0.7663645
206	0xbf1bfaeb	-0.60929745
207	0x3ec8039b	0.3906525
208	0xbd7ed764	-0.06221713
209	0xbeb2226a	-0.3479188
210	0xbea9e871	-0.3318515
211	0x3e46a691	0.19399478
212	0xbf02b787	-0.5106129
213	0x3f881420	1.0631142
214	0xbf599dc7	-0.85006374
215	0x3f3aa242	0.72903836
216	0x3f40081c	0.75012374
217	0xbf6a2358	-0.9146018
218	0xbe58cb0f	-0.2117121
219	0x3ec62c52	0.3870569
220	0xbc2a5a2f	-0.010397478
221	0xbec01a45	-0.37520042
222	0xbdbdfaf2	-0.0927638
223	0xbdf96143	-0.12176754
224	0xbc8427f6	-0.016132336
225	0xbf9e2259	-1.2354232
226	0xbc921a40	-0.017834783
227	0xbf1faa9c	-0.62369704
228	0xbe5b0c78	-0.21391475
229	0x3ea7d426	0.32779044
230	0xbf1b2276	-0.6059946
231	0x3f8a7cd7	1.0819348
232	0x3fcb0789	1.5861675
233	0xbeb72918	-0.3577354
234	0x3f00f922	0.50380147
235	0xbd8282bc	-0.06372592
236	0x3e95aabf	0.2923183
237	0xbecfb00b	-0.40563998
238	0xbf558192	-0.83400834
239	0x3d11b749	0.035575185
240	0x3e37912e	0.17926475
241	0x3e98e6b2	0.29863507
242	0x3b90cbb8	0.0044188164
243	0xbd81664b	-0.06318339
244	0x3f30d9f7	0.6908259
245	0xbf61aa84	-0.8815081
246	0xbf64e396	-0.8940977
247	0x3e4e865b	0.2016844
248	0x3f42b94f	0.7606401
249	0x3f2ad62f	0.6673307
250	0x3e3bcfb6	0.18340954
251	0xbe9f2d7b	-0.31089386
252	0x3f660efc	0.89866614
253	0xbfa59bfa	-1.2938225
254	0x3e205630	0.15657878
255	0x3dcf39b5	0.101184286

blocks.1.mlp.0.bias f4 [32]
0	0x3eab9cd5	0.3351809
1	0x3eb50fa9	0.3536351
2	0xbe465d9a	-0.19371644
3	0xbe9dd913	-0.30829677
4	0x3e1e421d	0.15454908
5	0x3ead30ca	0.33826286
6	0x3e21d742	0.1580477
7	0xbe02c9a0	-0.12772226
8	0xbddbe3f2	-0.107368365
9	0xbd8f86e8	-0.07008153
10	0x3f06ad19	0.52607876
11	0x3ead303e	0.33825868
12	0x3b32ade5	0.0027264294
13	0x3eeb531e	0.4596185
14	0xbc8896b5	-0.016673425
15	0xbcfeb86e	-0.031093802
16	0x3d41d4d5	0.047322113
17	0xbe8732d3	-0.26405963
18	0xbd6cf484	-0.057850376
19	0x3e583042	0.21112159
20	0x3f0f68ed	0.5601948
21	0x3eb93d54	0.36179602
22	0x3e2dbe86	0.1696721
23	0x3eef6667	0.46757814
24	0xbadd3926	-0.0016877993
25	0x3e95d90a	0.2926715
26	0x3ee1ab85	0.44076172
27	0x3edc38a5	0.43011966
28	0x3f59a289	0.85013634
29	0x3e2d3b8c	0.16917247
30	0x3e66fb83	0.22556882
31	0xbd72b77b	-0.05925701

blocks.1.mlp.2.weight f4 [8, 32]
0	0xbe8bb130	-0.2728362
1	0x3dd37ef4	0.10326949
2	0x3ec551e6	0.38539046
3	0x3e5598ca	0.20859066
4	0xbf0c1986	-0.54726446
5	0xbe80f65e	-0.25187963
6	0xbe715d50	-0.23570752
7	0x3f1847e8	0.5948472
8	0x3eacc670	0.33745146
9	0x3edec716	0.43511266
10	0xbeae562f	-0.34050128
11	0xbf2a7235	-0.66580516
12	0xbe936bcd	-0.28793183
13	0xbf76cc09	-0.9640508
14	0x3d33a8bd	0.043862093
15	0xbed6c45a	-0.4194668
16	0x3f0babea	0.54559195
17	0x3f22a52a	0.6353327
18	0x3f810e8c	1.0082564
19	0xbdea27e6	-0.11433391
20	0x3f245fc1	0.6420861
21	0xbeea740c	-0.45791662
22	0xbc2a8135	-0.010406782
23	0xbead4b8b	-0.33846697
24	0x3c48e88f	0.012262478
25	0x3e82cbf5	0.25546232
26	0xbf8c6f45	-1.0971457
27	0x3f4d8c66	0.80292356
28	0xbf4a2e1a	-0.78976595
29	0x3f40909e	0.7522067
30	0x3ee9a031	0.4563003
31	0x3ef7b13c	0.48377407
32	0xbeaee814	-0.34161437
33	0x3ef523df	0.4787893
34	0xbe4c1124	-0.19928414
35	0x3e2f2113	0.1710246
36	0xbefec09b	-0.4975632
37	0xbeb7fce8	-0.3593514
38	0xbf42ae6c	-0.76047397
39	0x3f2a47b2	0.6651565
40	0x3d0a23ff	0.033725735
41	0x3f041c0c	0.51605296
42	0xbf21f0b0	-0.63257885
43	0xbb829c8b	-0.0039859465
44	0x3eefa674	0.4680668
45	0x3f05b601	0.5223084
46	0xbf45de5c	-0.7729242
47	0xbecd9f06	-0.40160388
48	0xbe0afdee	-0.13573429
49	0x3f7b19a3	0.98085994
50	0xbf96dd21	-1.1786233
51	0xbe7c09c9	-0.24613108
52	0xbf139829	-0.5765405
53	0xbe9e60ab	-0.30933127
54	0xbde5f4d0	-0.11228335
55	0xbdef770e	-0.1169263
56	0xbf28d125	-0.6594413
57	0x3e44df9d	0.19225927
58	0xbf13b578	-0.57698774
59	0x3f3f25b0	0.7466688
60	0xbf12a4d5	-0.57282764
61	0x3e68f29d	0.227488
62	0xbd5046be	-0.050848715
63	0xbefaf49a	-0.4901474
64	0x3edc18f6	0.42987794
65	0x3d0b72ae	0.034044914
66	0x3e9b7f77	0.30370685
67	0xbf46ef52	-0.77708924
68	0xbf3bfa30	-0.7342863
69	0xbf97790e	-1.1833818
70	0x3e8198d5	0.25311914
71	0xbf565a60	-0.8373165
72	0xbe8b0494	-0.2715193
73	0x3e032334	0.12806398
74	0x3f808ae2	1.0042384
75	0x3f40c058	0.75293493
76	0x3dc5480c	0.096328825
77	0xbedcb813	-0.43109187
78	0x3eb19b8e	0.3468899
79	0xbda3d407	-0.079994254
80	0x3e19a797	0.15005337
81	0x3d22b554	0.03972371
82	0xbf084db9	-0.53243595
83	0xbf47c4d6	-0.7803472
84	0xbf6f28a0	-0.93421364
85	0x3dd73e8f	0.10509979
86	0xbe1812d6	-0.14850935
87	0xbeb1c07e	-0.34717172
88	0x3d7d74a8	0.06187883
89	0x3eb2d15c	0.34925354
90	0xbf4cbe95	-0.79978305
91	0xbeeea531	-0.46610406
92	0xbf2abefa	-0.6669766
93	0xbf13ab13	-0.57682914
94	0x3e489851	0.19589354
95	0x3f402708	0.75059557
96	0x3c92c3a8	0.017915562
97	0x3f6a9f9d	0.916498
98	0xbe9d8040	-0.3076191
99	0x3df3118e	0.11868583
100	0xbe98b308	-0.2982409
101	0xbc88f17a	-0.016716707
102	0x3e7485bc	0.2387914
103	0x3e66e48b	0.2254812
104	0xbe61971b	-0.22030298
105	0x3e9747ad	0.29546872
106	0xbee1a690	-0.4407239
107	0x3d09458c	0.03351359
108	0xbeabaa08	-0.3352816
109	0x3ea76058	0.32690692
110	0xbe8c0ac5	-0.27351967
111	0x3f00eb99	0.50359493
112	0xbf0c5891	-0.5482264
113	0x3f323227	0.69607776
114	0x3f3b5da2	0.7318975
115	0xbe8f2870	-0.2796054
116	0xbf89fdbc	-1.0780559
117	0xbd1567d3	-0.036475968
118	0xbf316846	-0.69299734
119	0xbf2d8b8f	-0.67791075
120	0xbe69966a	-0.22811285
121	0x3f821f63	1.0165828
122	0x3eb29e17	0.34886238
123	0x3dfe5425	0.12418393
124	0xbf2bce71	-0.6711188
125	0xbebb6a12	-0.36604363
126	0x3f287cf2	0.6581565
127	0x3f19ae22	0.6003133
128	0xbf1362a7	-0.57572407
129	0x3dd5301a	0.10409565
130	0x3d06e455	0.0329326
131	0x3f1163aa	0.567927
132	0xbf00ab62	-0.5026151
133	0xbd9ce6b7	-0.07661193
134	0xbf4fbb45	-0.81145126
135	0x3ebb2c67	0.36557314
136	0xbe3c38e4	-0.18381077
137	0xbea41318	-0.32045817
138	0x3ee8eba9	0.45492294
139	0x3e8d2887	0.27569982
140	0x3f3ff8ca	0.74988997
141	0x3f7c65e4	0.9859297
142	0x3e80633d	0.25075713
143	0xbf167732	-0.5877563
144	0xbe5977f9	-0.21237172
145	0xbd963ae9	-0.07335455
146	0xbe2377d6	-0.15963683
147	0x3e591094	0.2119773
148	0x3e4c7108	0.19964993
149	0xbe8fd049	-0.28088596
150	0x3f2172cc	0.6306579
151	0x3dd81d76	0.10552494
152	0x3f42036a	0.7578646
153	0xbecd29a1	-0.40070823
154	0xbf3c5c39	-0.7357822
155	0x3caff7c7	0.021480454
156	0xbef0c05d	-0.47021762
157	0xbf09ac08	-0.53778124
158	0xbefcfa88	-0.4940989
159	0xbdf822c1	-0.12116004
160	0x3e8a728b	0.27040514
161	0x3d91dbac	0.07121977
162	0xbd9d070a	-0.07667358
163	0xbf626b69	-0.88445145
164	0xbe319a02	-0.17343906
165	0xbd9fde35	-0.078060545
166	0x3d2bd54a	0.041951455
167	0xbeeeff0c	-0.4667896
168	0x3f071065	0.5275939
169	0x3f531c67	0.82465214
170	0xbef3c432	-0.47610623
171	0xbeff7233	-0.49891815
172	0xbecce511	-0.40018514
173	0x3dfa5e22	0.12224986
174	0xbf3bcec2	-0.7336236
175	0xbe2b50b7	-0.16730009
176	0xbf515221	-0.81765944
177	0xbe4c2ff6	-0.1994017
178	0xbf0ffa0e	-0.5624093
179	0xbf0a2e93	-0.53977317
180	0xbd47d03a	-0.048782565
181	0x3e85a165	0.26099697
182	0xbf02b022	-0.5105001
183	0x3e9f1f2c	0.3107847
184	0x3f11da4b	0.56973714
185	0x3dc43064	0.09579542
186	0x3e79473b	0.24343579
187	0xbf12f661	-0.57407194
188	0x3d52ed7b	0.05149601
189	0x3e853227	0.26014826
190	0x3ccb114d	0.024788523
191	0x3df35043	0.11880543
192	0x3e9fe494	0.3122908
193	0x3f4a776f	0.7908849
194	0x3e1e4a95	0.15458138
195	0xbe6bafa0	-0.23016214
196	0x3f063899	0.5243011
197	0xbd0757c1	-0.033042673
198	0x3e2ab94e	0.1667225
199	0xbed59f63	-0.41723165
200	0x3dcfbd3e	0.10143517
201	0x3e4d4f93	0.20049886
202	0x3d67a741	0.05655599
203	0xbd900702	-0.07032587
204	0x3c247bec	0.010039311
205	0xbf449d8f	-0.76802915
206	0x3d04be12	0.032407828
207	0x3f870c5f	1.055065
208	0x3f34f099	0.7067962
209	0xbcd27cd3	-0.025694286
210	0xbea4bf42	-0.32177168
211	0xbeb25c8e	-0.3483624
212	0xbeab1ddd	-0.3342122
213	0xbe5c5fdb	-0.21520941
214	0xbe4d10a1	-0.20025875
215	0xbf1707c4	-0.58996224
216	0xbf06abe6	-0.52606046
217	0x3eaa566f	0.3326907
218	0xbe1eaa53	-0.15494661
219	0xbd4cfc20	-0.050045133
220	0x3deb5337	0.11490481
221	0x3e3e04dd	0.18556543
222	0x3f1d012b	0.6132991
223	0xbe284f98	-0.16436613
224	0xbe06a550	-0.13148999
225	0xbf0f57ef	-0.5599355
226	0xbf339f74	-0.7016518
227	0x3e903495	0.28165117
228	0xbd5b3e3b	-0.053526144
229	0x3e350045	0.17675884
230	0x3e23d007	0.15997325
231	0x3f20613a	0.62648356
232	0xbf5ff884	-0.8748858
233	0xbf7adcce	-0.9799317
234	0x3e5b824d	0.21436425
235	0x3f0a0e65	0.53928214
236	0x3e6533f4	0.223831
237	0x3ed5daab	0.41768393
238	0xbeca1ee5	-0.39476696
239	0xbecdceb8	-0.40196776
240	0x3e1254a5	0.14290102
241	0x3e99cf67	0.30041048
242	0x3ea61493	0.32437572
243	0x3e4c4f16	0.19952044
244	0xbf5e5ec7	-0.8686337
245	0x3f7454da	0.95441973
246	0xbb88d11d	-0.004175319
247	0x3e51f10a	0.20502105
248	0xbf222210	-0.63333225
249	0xbe99b1b1	-0.3001838
250	0x3e007fec	0.12548798
251	0x3ee87911	0.45404866
252	0x3eb78b25	0.35848346
253	0xbf365ce7	-0.7123551
254	0xbeb55644	-0.35417378
255	0xbf1490ef	-0.5803365

blocks.1.mlp.2.bias f4 [8]
0	0x3ddfd2c3	0.109288715
1	0xbd198c6e	-0.03748744
2	0x3e344f37	0.17608343
3	0x3dd60522	0.10450198
4	0x3d90bb60	0.07066989
5	0x3e4c5175	0.19952948
6	0xbe87e67b	-0.2654303
7	0xbd177ca8	-0.036984116

mlp_head.0.weight f4 [10, 8]
0	0xbf445a35	-0.76700145
1	0x3f1b82f2	0.6074668
2	0x3e836276	0.25661057
3	0xbf16c238	-0.58890104
4	0x3fd1becb	1.638635
5	0xbeac80cf	-0.33692023
6	0xbec8d7a0	-0.3922701
7	0x3f1ac586	0.60457647
8	0x3e2daef1	0.16961266
9	0x3d852da7	0.06502848
10	0xbf28190d	-0.65663224
11	0x3e8c25bd	0.27372542
12	0x3d767d5b	0.060178142
13	0xbf817a2f	-1.0115412
14	0xbe7773f0	-0.2416532
15	0x3f8e8858	1.1135359
16	0xbe208c2f	-0.15678476
17	0xbe82529a	-0.25453645
18	0xbed43c05	-0.4145204
19	0xbece9383	-0.40346918
20	0xbf4a3e1b	-0.79001015
21	0x3ecc6f40	0.39928627
22	0x3e74c601	0.23903657
23	0xbe852afc	-0.26009357
24	0x3f4605ca	0.77352583
25	0x3c84c671	0.016207905
26	0x3e98dc25	0.29855457
27	0xbf303972	-0.68837655
28	0x3ca9ac62	0.020712081
29	0xbd3285ea	-0.04358474
30	0xbdbd4efb	-0.0924358
31	0xbf204fc5	-0.6262172
32	0xbf594e21	-0.8488484
33	0x3b714f3d	0.0036820911
34	0x3e65d870	0.22445846
35	0x3f1dcca2	0.6164037
36	0xbecc05fa	-0.3984831
37	0x3e38b7b8	0.18038833
38	0x3f074103	0.52833575
39	0x3e503e08	0.20336163
40	0xbe94034d	-0.28908768
41	0xbef49b76	-0.47774857
42	0x3dab216f	0.08355986
43	0xbe1ff396	-0.15620264
44	0x3f7923cc	0.97320247
45	0x3f1533b6	0.5828203
46	0xbf20fff5	-0.6289056
47	0xbf07214c	-0.5278518
48	0xbf321c13	-0.6957409
49	0xbd00663c	-0.0313475
50	0x3dc8e60f	0.09809505
51	0xbeed2961	-0.46320632
52	0xbf187359	-0.59551007
53	0x3f359df1	0.70944124
54	0xbeefd637	-0.4684312
55	0x3f95962b	1.1686453
56	0x3f02444e	0.50885475
57	0x3f63b14e	0.8894242
58	0xbe2342a9	-0.15943398
59	0x3f1a8970	0.60365963
60	0xbdf46490	-0.11933243
61	0x3e8f525d	0.27992526
62	0x3e8ad971	0.2711902
63	0xbe90cd37	-0.28281567
64	0xbe9e8862	-0.30963427
65	0xbf80d8b5	-1.0066134
66	0x3ebd9100	0.3702469
67	0xbee26c18	-0.44223094
68	0xbebfc83e	-0.3745746
69	0xbe7d14a6	-0.24714908
70	0x3f0648de	0.52454937
71	0xbdad89cb	-0.084735475
72	0x3eb14bc8	0.3462813
73	0x3ea23604	0.31681836
74	0x3f9d0cd2	1.2269537
75	0x3f3d89e8	0.74038553
76	0xbddc385b	-0.107529365
77	0xbdc8bbba	-0.09801431
78	0x3eadcb45	0.33944145
79	0x3d38056c	0.044927046

mlp_head.0.bias f4 [10]
0	0x3cd1b741	0.025600078
1	0x3ea65f25	0.32494465
2	0x3e437693	0.19088201
3	0xbee686b1	-0.45024636
4	0x3e954882	0.29156882
5	0x3f5822d3	0.8442814
6	0x3e97a1d6	0.2961566
7	0xbd925293	-0.07144656
8	0xbe537ba0	-0.20652628
9	0x3e6ecd4e	0.23320505
